…
12/08 11:32:49 PM gpu device = 0
12/08 11:32:49 PM args = Namespace(data='/sdb_new/wz/dataset/ISIC-2017', batch_size=2, learning_rate=0.025, learning_rate_min=0.001, momentum=0.9, weight_decay=0.0003, report_freq=50, gpu=0, epochs=25, init_channels=16, layers=6, model_path='saved_models', cutout=False, cutout_length=16, drop_path_prob=0.3, save='/sdb_new/wz/NAS/AGNAS/Darts_Search_Space/search/search-EXP-20231208-233246', seed=0, grad_clip=5, train_portion=0.7, unrolled=False, arch_learning_rate=0.0003, arch_weight_decay=0.001)
12/08 11:32:50 PM Network(
  (_criterion): CrossEntropyLoss()
  (stem): Sequential(
    (0): Conv2d(3, 48, kernel_size=(3, 3), stride=(1, 1), padding=(1, 1), bias=False)
    (1): BatchNorm2d(48, eps=1e-05, momentum=0.1, affine=True, track_running_stats=True)
  )
  (cells): ModuleList(
    (0): Cell(
      (preprocess0): ReLUConvBN(
        (op): Sequential(
          (0): ReLU()
          (1): Conv2d(48, 16, kernel_size=(1, 1), stride=(1, 1), bias=False)
          (2): BatchNorm2d(16, eps=1e-05, momentum=0.1, affine=False, track_running_stats=True)
        )
      )
      (preprocess1): ReLUConvBN(
        (op): Sequential(
          (0): ReLU()
          (1): Conv2d(48, 16, kernel_size=(1, 1), stride=(1, 1), bias=False)
          (2): BatchNorm2d(16, eps=1e-05, momentum=0.1, affine=False, track_running_stats=True)
        )
      )
      (_ops): ModuleList(
        (0): MixedOp(
          (_ops): ModuleList(
            (0): SepConv(
              (op): Sequential(
                (0): ReLU()
                (1): Conv2d(16, 16, kernel_size=(3, 3), stride=(1, 1), padding=(1, 1), groups=16, bias=False)
                (2): Conv2d(16, 16, kernel_size=(1, 1), stride=(1, 1), bias=False)
                (3): BatchNorm2d(16, eps=1e-05, momentum=0.1, affine=False, track_running_stats=True)
                (4): ReLU()
                (5): Conv2d(16, 16, kernel_size=(3, 3), stride=(1, 1), padding=(1, 1), groups=16, bias=False)
                (6): Conv2d(16, 16, kernel_size=(1, 1), stride=(1, 1), bias=False)
                (7): BatchNorm2d(16, eps=1e-05, momentum=0.1, affine=False, track_running_stats=True)
              )
            )
            (1): DilConv(
              (op): Sequential(
                (0): ReLU()
                (1): Conv2d(16, 16, kernel_size=(3, 3), stride=(1, 1), padding=(2, 2), dilation=(2, 2), groups=16, bias=False)
                (2): Conv2d(16, 16, kernel_size=(1, 1), stride=(1, 1), bias=False)
                (3): BatchNorm2d(16, eps=1e-05, momentum=0.1, affine=False, track_running_stats=True)
              )
            )
            (2): Identity()
            (3): Sequential(
              (0): AvgPool2d(kernel_size=3, stride=1, padding=1)
              (1): BatchNorm2d(16, eps=1e-05, momentum=0.1, affine=False, track_running_stats=True)
            )
            (4): Sequential(
              (0): MaxPool2d(kernel_size=3, stride=1, padding=1, dilation=1, ceil_mode=False)
              (1): BatchNorm2d(16, eps=1e-05, momentum=0.1, affine=False, track_running_stats=True)
            )
            (5): Zero()
            (6): CBAM(
              (ChannelGate): ChannelGate(
                (mlp): Sequential(
                  (0): Flatten()
                  (1): Linear(in_features=16, out_features=1, bias=True)
                  (2): ReLU()
                  (3): Linear(in_features=1, out_features=16, bias=True)
                )
              )
              (SpatialGate): SpatialGate(
                (compress): ChannelPool()
                (spatial): BasicConv(
                  (conv): Conv2d(2, 1, kernel_size=(7, 7), stride=(1, 1), padding=(3, 3), bias=False)
                  (bn): BatchNorm2d(1, eps=1e-05, momentum=0.01, affine=True, track_running_stats=True)
                )
              )
            )
            (7): eca(
              (avg_pool): AdaptiveAvgPool2d(output_size=1)
              (conv): Conv1d(1, 1, kernel_size=(3,), stride=(1,), padding=(1,), bias=False)
              (sigmoid): Sigmoid()
            )
          )
          (attention): AttentionModule(
            (avg_pool): AdaptiveAvgPool2d(output_size=1)
            (fc): Sequential(
              (0): Linear(in_features=128, out_features=16, bias=False)
              (1): ReLU(inplace=True)
              (2): Linear(in_features=16, out_features=128, bias=False)
              (3): Sigmoid()
            )
          )
        )
        (1): MixedOp(
          (_ops): ModuleList(
            (0): SepConv(
              (op): Sequential(
                (0): ReLU()
                (1): Conv2d(16, 16, kernel_size=(3, 3), stride=(1, 1), padding=(1, 1), groups=16, bias=False)
                (2): Conv2d(16, 16, kernel_size=(1, 1), stride=(1, 1), bias=False)
                (3): BatchNorm2d(16, eps=1e-05, momentum=0.1, affine=False, track_running_stats=True)
                (4): ReLU()
                (5): Conv2d(16, 16, kernel_size=(3, 3), stride=(1, 1), padding=(1, 1), groups=16, bias=False)
                (6): Conv2d(16, 16, kernel_size=(1, 1), stride=(1, 1), bias=False)
                (7): BatchNorm2d(16, eps=1e-05, momentum=0.1, affine=False, track_running_stats=True)
              )
            )
            (1): DilConv(
              (op): Sequential(
                (0): ReLU()
                (1): Conv2d(16, 16, kernel_size=(3, 3), stride=(1, 1), padding=(2, 2), dilation=(2, 2), groups=16, bias=False)
                (2): Conv2d(16, 16, kernel_size=(1, 1), stride=(1, 1), bias=False)
                (3): BatchNorm2d(16, eps=1e-05, momentum=0.1, affine=False, track_running_stats=True)
              )
            )
            (2): Identity()
            (3): Sequential(
              (0): AvgPool2d(kernel_size=3, stride=1, padding=1)
              (1): BatchNorm2d(16, eps=1e-05, momentum=0.1, affine=False, track_running_stats=True)
            )
            (4): Sequential(
              (0): MaxPool2d(kernel_size=3, stride=1, padding=1, dilation=1, ceil_mode=False)
              (1): BatchNorm2d(16, eps=1e-05, momentum=0.1, affine=False, track_running_stats=True)
            )
            (5): Zero()
            (6): CBAM(
              (ChannelGate): ChannelGate(
                (mlp): Sequential(
                  (0): Flatten()
                  (1): Linear(in_features=16, out_features=1, bias=True)
                  (2): ReLU()
                  (3): Linear(in_features=1, out_features=16, bias=True)
                )
              )
              (SpatialGate): SpatialGate(
                (compress): ChannelPool()
                (spatial): BasicConv(
                  (conv): Conv2d(2, 1, kernel_size=(7, 7), stride=(1, 1), padding=(3, 3), bias=False)
                  (bn): BatchNorm2d(1, eps=1e-05, momentum=0.01, affine=True, track_running_stats=True)
                )
              )
            )
            (7): eca(
              (avg_pool): AdaptiveAvgPool2d(output_size=1)
              (conv): Conv1d(1, 1, kernel_size=(3,), stride=(1,), padding=(1,), bias=False)
              (sigmoid): Sigmoid()
            )
          )
          (attention): AttentionModule(
            (avg_pool): AdaptiveAvgPool2d(output_size=1)
            (fc): Sequential(
              (0): Linear(in_features=128, out_features=16, bias=False)
              (1): ReLU(inplace=True)
              (2): Linear(in_features=16, out_features=128, bias=False)
              (3): Sigmoid()
            )
          )
        )
        (2): MixedOp(
          (_ops): ModuleList(
            (0): SepConv(
              (op): Sequential(
                (0): ReLU()
                (1): Conv2d(16, 16, kernel_size=(3, 3), stride=(1, 1), padding=(1, 1), groups=16, bias=False)
                (2): Conv2d(16, 16, kernel_size=(1, 1), stride=(1, 1), bias=False)
                (3): BatchNorm2d(16, eps=1e-05, momentum=0.1, affine=False, track_running_stats=True)
                (4): ReLU()
                (5): Conv2d(16, 16, kernel_size=(3, 3), stride=(1, 1), padding=(1, 1), groups=16, bias=False)
                (6): Conv2d(16, 16, kernel_size=(1, 1), stride=(1, 1), bias=False)
                (7): BatchNorm2d(16, eps=1e-05, momentum=0.1, affine=False, track_running_stats=True)
              )
            )
            (1): DilConv(
              (op): Sequential(
                (0): ReLU()
                (1): Conv2d(16, 16, kernel_size=(3, 3), stride=(1, 1), padding=(2, 2), dilation=(2, 2), groups=16, bias=False)
                (2): Conv2d(16, 16, kernel_size=(1, 1), stride=(1, 1), bias=False)
                (3): BatchNorm2d(16, eps=1e-05, momentum=0.1, affine=False, track_running_stats=True)
              )
            )
            (2): Identity()
            (3): Sequential(
              (0): AvgPool2d(kernel_size=3, stride=1, padding=1)
              (1): BatchNorm2d(16, eps=1e-05, momentum=0.1, affine=False, track_running_stats=True)
            )
            (4): Sequential(
              (0): MaxPool2d(kernel_size=3, stride=1, padding=1, dilation=1, ceil_mode=False)
              (1): BatchNorm2d(16, eps=1e-05, momentum=0.1, affine=False, track_running_stats=True)
            )
            (5): Zero()
            (6): CBAM(
              (ChannelGate): ChannelGate(
                (mlp): Sequential(
                  (0): Flatten()
                  (1): Linear(in_features=16, out_features=1, bias=True)
                  (2): ReLU()
                  (3): Linear(in_features=1, out_features=16, bias=True)
                )
              )
              (SpatialGate): SpatialGate(
                (compress): ChannelPool()
                (spatial): BasicConv(
                  (conv): Conv2d(2, 1, kernel_size=(7, 7), stride=(1, 1), padding=(3, 3), bias=False)
                  (bn): BatchNorm2d(1, eps=1e-05, momentum=0.01, affine=True, track_running_stats=True)
                )
              )
            )
            (7): eca(
              (avg_pool): AdaptiveAvgPool2d(output_size=1)
              (conv): Conv1d(1, 1, kernel_size=(3,), stride=(1,), padding=(1,), bias=False)
              (sigmoid): Sigmoid()
            )
          )
          (attention): AttentionModule(
            (avg_pool): AdaptiveAvgPool2d(output_size=1)
            (fc): Sequential(
              (0): Linear(in_features=128, out_features=16, bias=False)
              (1): ReLU(inplace=True)
              (2): Linear(in_features=16, out_features=128, bias=False)
              (3): Sigmoid()
            )
          )
        )
        (3): MixedOp(
          (_ops): ModuleList(
            (0): SepConv(
              (op): Sequential(
                (0): ReLU()
                (1): Conv2d(16, 16, kernel_size=(3, 3), stride=(1, 1), padding=(1, 1), groups=16, bias=False)
                (2): Conv2d(16, 16, kernel_size=(1, 1), stride=(1, 1), bias=False)
                (3): BatchNorm2d(16, eps=1e-05, momentum=0.1, affine=False, track_running_stats=True)
                (4): ReLU()
                (5): Conv2d(16, 16, kernel_size=(3, 3), stride=(1, 1), padding=(1, 1), groups=16, bias=False)
                (6): Conv2d(16, 16, kernel_size=(1, 1), stride=(1, 1), bias=False)
                (7): BatchNorm2d(16, eps=1e-05, momentum=0.1, affine=False, track_running_stats=True)
              )
            )
            (1): DilConv(
              (op): Sequential(
                (0): ReLU()
                (1): Conv2d(16, 16, kernel_size=(3, 3), stride=(1, 1), padding=(2, 2), dilation=(2, 2), groups=16, bias=False)
                (2): Conv2d(16, 16, kernel_size=(1, 1), stride=(1, 1), bias=False)
                (3): BatchNorm2d(16, eps=1e-05, momentum=0.1, affine=False, track_running_stats=True)
              )
            )
            (2): Identity()
            (3): Sequential(
              (0): AvgPool2d(kernel_size=3, stride=1, padding=1)
              (1): BatchNorm2d(16, eps=1e-05, momentum=0.1, affine=False, track_running_stats=True)
            )
            (4): Sequential(
              (0): MaxPool2d(kernel_size=3, stride=1, padding=1, dilation=1, ceil_mode=False)
              (1): BatchNorm2d(16, eps=1e-05, momentum=0.1, affine=False, track_running_stats=True)
            )
            (5): Zero()
            (6): CBAM(
              (ChannelGate): ChannelGate(
                (mlp): Sequential(
                  (0): Flatten()
                  (1): Linear(in_features=16, out_features=1, bias=True)
                  (2): ReLU()
                  (3): Linear(in_features=1, out_features=16, bias=True)
                )
              )
              (SpatialGate): SpatialGate(
                (compress): ChannelPool()
                (spatial): BasicConv(
                  (conv): Conv2d(2, 1, kernel_size=(7, 7), stride=(1, 1), padding=(3, 3), bias=False)
                  (bn): BatchNorm2d(1, eps=1e-05, momentum=0.01, affine=True, track_running_stats=True)
                )
              )
            )
            (7): eca(
              (avg_pool): AdaptiveAvgPool2d(output_size=1)
              (conv): Conv1d(1, 1, kernel_size=(3,), stride=(1,), padding=(1,), bias=False)
              (sigmoid): Sigmoid()
            )
          )
          (attention): AttentionModule(
            (avg_pool): AdaptiveAvgPool2d(output_size=1)
            (fc): Sequential(
              (0): Linear(in_features=128, out_features=16, bias=False)
              (1): ReLU(inplace=True)
              (2): Linear(in_features=16, out_features=128, bias=False)
              (3): Sigmoid()
            )
          )
        )
        (4): MixedOp(
          (_ops): ModuleList(
            (0): SepConv(
              (op): Sequential(
                (0): ReLU()
                (1): Conv2d(16, 16, kernel_size=(3, 3), stride=(1, 1), padding=(1, 1), groups=16, bias=False)
                (2): Conv2d(16, 16, kernel_size=(1, 1), stride=(1, 1), bias=False)
                (3): BatchNorm2d(16, eps=1e-05, momentum=0.1, affine=False, track_running_stats=True)
                (4): ReLU()
                (5): Conv2d(16, 16, kernel_size=(3, 3), stride=(1, 1), padding=(1, 1), groups=16, bias=False)
                (6): Conv2d(16, 16, kernel_size=(1, 1), stride=(1, 1), bias=False)
                (7): BatchNorm2d(16, eps=1e-05, momentum=0.1, affine=False, track_running_stats=True)
              )
            )
            (1): DilConv(
              (op): Sequential(
                (0): ReLU()
                (1): Conv2d(16, 16, kernel_size=(3, 3), stride=(1, 1), padding=(2, 2), dilation=(2, 2), groups=16, bias=False)
                (2): Conv2d(16, 16, kernel_size=(1, 1), stride=(1, 1), bias=False)
                (3): BatchNorm2d(16, eps=1e-05, momentum=0.1, affine=False, track_running_stats=True)
              )
            )
            (2): Identity()
            (3): Sequential(
              (0): AvgPool2d(kernel_size=3, stride=1, padding=1)
              (1): BatchNorm2d(16, eps=1e-05, momentum=0.1, affine=False, track_running_stats=True)
            )
            (4): Sequential(
              (0): MaxPool2d(kernel_size=3, stride=1, padding=1, dilation=1, ceil_mode=False)
              (1): BatchNorm2d(16, eps=1e-05, momentum=0.1, affine=False, track_running_stats=True)
            )
            (5): Zero()
            (6): CBAM(
              (ChannelGate): ChannelGate(
                (mlp): Sequential(
                  (0): Flatten()
                  (1): Linear(in_features=16, out_features=1, bias=True)
                  (2): ReLU()
                  (3): Linear(in_features=1, out_features=16, bias=True)
                )
              )
              (SpatialGate): SpatialGate(
                (compress): ChannelPool()
                (spatial): BasicConv(
                  (conv): Conv2d(2, 1, kernel_size=(7, 7), stride=(1, 1), padding=(3, 3), bias=False)
                  (bn): BatchNorm2d(1, eps=1e-05, momentum=0.01, affine=True, track_running_stats=True)
                )
              )
            )
            (7): eca(
              (avg_pool): AdaptiveAvgPool2d(output_size=1)
              (conv): Conv1d(1, 1, kernel_size=(3,), stride=(1,), padding=(1,), bias=False)
              (sigmoid): Sigmoid()
            )
          )
          (attention): AttentionModule(
            (avg_pool): AdaptiveAvgPool2d(output_size=1)
            (fc): Sequential(
              (0): Linear(in_features=128, out_features=16, bias=False)
              (1): ReLU(inplace=True)
              (2): Linear(in_features=16, out_features=128, bias=False)
              (3): Sigmoid()
            )
          )
        )
        (5): MixedOp(
          (_ops): ModuleList(
            (0): SepConv(
              (op): Sequential(
                (0): ReLU()
                (1): Conv2d(16, 16, kernel_size=(3, 3), stride=(1, 1), padding=(1, 1), groups=16, bias=False)
                (2): Conv2d(16, 16, kernel_size=(1, 1), stride=(1, 1), bias=False)
                (3): BatchNorm2d(16, eps=1e-05, momentum=0.1, affine=False, track_running_stats=True)
                (4): ReLU()
                (5): Conv2d(16, 16, kernel_size=(3, 3), stride=(1, 1), padding=(1, 1), groups=16, bias=False)
                (6): Conv2d(16, 16, kernel_size=(1, 1), stride=(1, 1), bias=False)
                (7): BatchNorm2d(16, eps=1e-05, momentum=0.1, affine=False, track_running_stats=True)
              )
            )
            (1): DilConv(
              (op): Sequential(
                (0): ReLU()
                (1): Conv2d(16, 16, kernel_size=(3, 3), stride=(1, 1), padding=(2, 2), dilation=(2, 2), groups=16, bias=False)
                (2): Conv2d(16, 16, kernel_size=(1, 1), stride=(1, 1), bias=False)
                (3): BatchNorm2d(16, eps=1e-05, momentum=0.1, affine=False, track_running_stats=True)
              )
            )
            (2): Identity()
            (3): Sequential(
              (0): AvgPool2d(kernel_size=3, stride=1, padding=1)
              (1): BatchNorm2d(16, eps=1e-05, momentum=0.1, affine=False, track_running_stats=True)
            )
            (4): Sequential(
              (0): MaxPool2d(kernel_size=3, stride=1, padding=1, dilation=1, ceil_mode=False)
              (1): BatchNorm2d(16, eps=1e-05, momentum=0.1, affine=False, track_running_stats=True)
            )
            (5): Zero()
            (6): CBAM(
              (ChannelGate): ChannelGate(
                (mlp): Sequential(
                  (0): Flatten()
                  (1): Linear(in_features=16, out_features=1, bias=True)
                  (2): ReLU()
                  (3): Linear(in_features=1, out_features=16, bias=True)
                )
              )
              (SpatialGate): SpatialGate(
                (compress): ChannelPool()
                (spatial): BasicConv(
                  (conv): Conv2d(2, 1, kernel_size=(7, 7), stride=(1, 1), padding=(3, 3), bias=False)
                  (bn): BatchNorm2d(1, eps=1e-05, momentum=0.01, affine=True, track_running_stats=True)
                )
              )
            )
            (7): eca(
              (avg_pool): AdaptiveAvgPool2d(output_size=1)
              (conv): Conv1d(1, 1, kernel_size=(3,), stride=(1,), padding=(1,), bias=False)
              (sigmoid): Sigmoid()
            )
          )
          (attention): AttentionModule(
            (avg_pool): AdaptiveAvgPool2d(output_size=1)
            (fc): Sequential(
              (0): Linear(in_features=128, out_features=16, bias=False)
              (1): ReLU(inplace=True)
              (2): Linear(in_features=16, out_features=128, bias=False)
              (3): Sigmoid()
            )
          )
        )
        (6): MixedOp(
          (_ops): ModuleList(
            (0): SepConv(
              (op): Sequential(
                (0): ReLU()
                (1): Conv2d(16, 16, kernel_size=(3, 3), stride=(1, 1), padding=(1, 1), groups=16, bias=False)
                (2): Conv2d(16, 16, kernel_size=(1, 1), stride=(1, 1), bias=False)
                (3): BatchNorm2d(16, eps=1e-05, momentum=0.1, affine=False, track_running_stats=True)
                (4): ReLU()
                (5): Conv2d(16, 16, kernel_size=(3, 3), stride=(1, 1), padding=(1, 1), groups=16, bias=False)
                (6): Conv2d(16, 16, kernel_size=(1, 1), stride=(1, 1), bias=False)
                (7): BatchNorm2d(16, eps=1e-05, momentum=0.1, affine=False, track_running_stats=True)
              )
            )
            (1): DilConv(
              (op): Sequential(
                (0): ReLU()
                (1): Conv2d(16, 16, kernel_size=(3, 3), stride=(1, 1), padding=(2, 2), dilation=(2, 2), groups=16, bias=False)
                (2): Conv2d(16, 16, kernel_size=(1, 1), stride=(1, 1), bias=False)
                (3): BatchNorm2d(16, eps=1e-05, momentum=0.1, affine=False, track_running_stats=True)
              )
            )
            (2): Identity()
            (3): Sequential(
              (0): AvgPool2d(kernel_size=3, stride=1, padding=1)
              (1): BatchNorm2d(16, eps=1e-05, momentum=0.1, affine=False, track_running_stats=True)
            )
            (4): Sequential(
              (0): MaxPool2d(kernel_size=3, stride=1, padding=1, dilation=1, ceil_mode=False)
              (1): BatchNorm2d(16, eps=1e-05, momentum=0.1, affine=False, track_running_stats=True)
            )
            (5): Zero()
            (6): CBAM(
              (ChannelGate): ChannelGate(
                (mlp): Sequential(
                  (0): Flatten()
                  (1): Linear(in_features=16, out_features=1, bias=True)
                  (2): ReLU()
                  (3): Linear(in_features=1, out_features=16, bias=True)
                )
              )
              (SpatialGate): SpatialGate(
                (compress): ChannelPool()
                (spatial): BasicConv(
                  (conv): Conv2d(2, 1, kernel_size=(7, 7), stride=(1, 1), padding=(3, 3), bias=False)
                  (bn): BatchNorm2d(1, eps=1e-05, momentum=0.01, affine=True, track_running_stats=True)
                )
              )
            )
            (7): eca(
              (avg_pool): AdaptiveAvgPool2d(output_size=1)
              (conv): Conv1d(1, 1, kernel_size=(3,), stride=(1,), padding=(1,), bias=False)
              (sigmoid): Sigmoid()
            )
          )
          (attention): AttentionModule(
            (avg_pool): AdaptiveAvgPool2d(output_size=1)
            (fc): Sequential(
              (0): Linear(in_features=128, out_features=16, bias=False)
              (1): ReLU(inplace=True)
              (2): Linear(in_features=16, out_features=128, bias=False)
              (3): Sigmoid()
            )
          )
        )
        (7): MixedOp(
          (_ops): ModuleList(
            (0): SepConv(
              (op): Sequential(
                (0): ReLU()
                (1): Conv2d(16, 16, kernel_size=(3, 3), stride=(1, 1), padding=(1, 1), groups=16, bias=False)
                (2): Conv2d(16, 16, kernel_size=(1, 1), stride=(1, 1), bias=False)
                (3): BatchNorm2d(16, eps=1e-05, momentum=0.1, affine=False, track_running_stats=True)
                (4): ReLU()
                (5): Conv2d(16, 16, kernel_size=(3, 3), stride=(1, 1), padding=(1, 1), groups=16, bias=False)
                (6): Conv2d(16, 16, kernel_size=(1, 1), stride=(1, 1), bias=False)
                (7): BatchNorm2d(16, eps=1e-05, momentum=0.1, affine=False, track_running_stats=True)
              )
            )
            (1): DilConv(
              (op): Sequential(
                (0): ReLU()
                (1): Conv2d(16, 16, kernel_size=(3, 3), stride=(1, 1), padding=(2, 2), dilation=(2, 2), groups=16, bias=False)
                (2): Conv2d(16, 16, kernel_size=(1, 1), stride=(1, 1), bias=False)
                (3): BatchNorm2d(16, eps=1e-05, momentum=0.1, affine=False, track_running_stats=True)
              )
            )
            (2): Identity()
            (3): Sequential(
              (0): AvgPool2d(kernel_size=3, stride=1, padding=1)
              (1): BatchNorm2d(16, eps=1e-05, momentum=0.1, affine=False, track_running_stats=True)
            )
            (4): Sequential(
              (0): MaxPool2d(kernel_size=3, stride=1, padding=1, dilation=1, ceil_mode=False)
              (1): BatchNorm2d(16, eps=1e-05, momentum=0.1, affine=False, track_running_stats=True)
            )
            (5): Zero()
            (6): CBAM(
              (ChannelGate): ChannelGate(
                (mlp): Sequential(
                  (0): Flatten()
                  (1): Linear(in_features=16, out_features=1, bias=True)
                  (2): ReLU()
                  (3): Linear(in_features=1, out_features=16, bias=True)
                )
              )
              (SpatialGate): SpatialGate(
                (compress): ChannelPool()
                (spatial): BasicConv(
                  (conv): Conv2d(2, 1, kernel_size=(7, 7), stride=(1, 1), padding=(3, 3), bias=False)
                  (bn): BatchNorm2d(1, eps=1e-05, momentum=0.01, affine=True, track_running_stats=True)
                )
              )
            )
            (7): eca(
              (avg_pool): AdaptiveAvgPool2d(output_size=1)
              (conv): Conv1d(1, 1, kernel_size=(3,), stride=(1,), padding=(1,), bias=False)
              (sigmoid): Sigmoid()
            )
          )
          (attention): AttentionModule(
            (avg_pool): AdaptiveAvgPool2d(output_size=1)
            (fc): Sequential(
              (0): Linear(in_features=128, out_features=16, bias=False)
              (1): ReLU(inplace=True)
              (2): Linear(in_features=16, out_features=128, bias=False)
              (3): Sigmoid()
            )
          )
        )
        (8): MixedOp(
          (_ops): ModuleList(
            (0): SepConv(
              (op): Sequential(
                (0): ReLU()
                (1): Conv2d(16, 16, kernel_size=(3, 3), stride=(1, 1), padding=(1, 1), groups=16, bias=False)
                (2): Conv2d(16, 16, kernel_size=(1, 1), stride=(1, 1), bias=False)
                (3): BatchNorm2d(16, eps=1e-05, momentum=0.1, affine=False, track_running_stats=True)
                (4): ReLU()
                (5): Conv2d(16, 16, kernel_size=(3, 3), stride=(1, 1), padding=(1, 1), groups=16, bias=False)
                (6): Conv2d(16, 16, kernel_size=(1, 1), stride=(1, 1), bias=False)
                (7): BatchNorm2d(16, eps=1e-05, momentum=0.1, affine=False, track_running_stats=True)
              )
            )
            (1): DilConv(
              (op): Sequential(
                (0): ReLU()
                (1): Conv2d(16, 16, kernel_size=(3, 3), stride=(1, 1), padding=(2, 2), dilation=(2, 2), groups=16, bias=False)
                (2): Conv2d(16, 16, kernel_size=(1, 1), stride=(1, 1), bias=False)
                (3): BatchNorm2d(16, eps=1e-05, momentum=0.1, affine=False, track_running_stats=True)
              )
            )
            (2): Identity()
            (3): Sequential(
              (0): AvgPool2d(kernel_size=3, stride=1, padding=1)
              (1): BatchNorm2d(16, eps=1e-05, momentum=0.1, affine=False, track_running_stats=True)
            )
            (4): Sequential(
              (0): MaxPool2d(kernel_size=3, stride=1, padding=1, dilation=1, ceil_mode=False)
              (1): BatchNorm2d(16, eps=1e-05, momentum=0.1, affine=False, track_running_stats=True)
            )
            (5): Zero()
            (6): CBAM(
              (ChannelGate): ChannelGate(
                (mlp): Sequential(
                  (0): Flatten()
                  (1): Linear(in_features=16, out_features=1, bias=True)
                  (2): ReLU()
                  (3): Linear(in_features=1, out_features=16, bias=True)
                )
              )
              (SpatialGate): SpatialGate(
                (compress): ChannelPool()
                (spatial): BasicConv(
                  (conv): Conv2d(2, 1, kernel_size=(7, 7), stride=(1, 1), padding=(3, 3), bias=False)
                  (bn): BatchNorm2d(1, eps=1e-05, momentum=0.01, affine=True, track_running_stats=True)
                )
              )
            )
            (7): eca(
              (avg_pool): AdaptiveAvgPool2d(output_size=1)
              (conv): Conv1d(1, 1, kernel_size=(3,), stride=(1,), padding=(1,), bias=False)
              (sigmoid): Sigmoid()
            )
          )
          (attention): AttentionModule(
            (avg_pool): AdaptiveAvgPool2d(output_size=1)
            (fc): Sequential(
              (0): Linear(in_features=128, out_features=16, bias=False)
              (1): ReLU(inplace=True)
              (2): Linear(in_features=16, out_features=128, bias=False)
              (3): Sigmoid()
            )
          )
        )
        (9): MixedOp(
          (_ops): ModuleList(
            (0): SepConv(
              (op): Sequential(
                (0): ReLU()
                (1): Conv2d(16, 16, kernel_size=(3, 3), stride=(1, 1), padding=(1, 1), groups=16, bias=False)
                (2): Conv2d(16, 16, kernel_size=(1, 1), stride=(1, 1), bias=False)
                (3): BatchNorm2d(16, eps=1e-05, momentum=0.1, affine=False, track_running_stats=True)
                (4): ReLU()
                (5): Conv2d(16, 16, kernel_size=(3, 3), stride=(1, 1), padding=(1, 1), groups=16, bias=False)
                (6): Conv2d(16, 16, kernel_size=(1, 1), stride=(1, 1), bias=False)
                (7): BatchNorm2d(16, eps=1e-05, momentum=0.1, affine=False, track_running_stats=True)
              )
            )
            (1): DilConv(
              (op): Sequential(
                (0): ReLU()
                (1): Conv2d(16, 16, kernel_size=(3, 3), stride=(1, 1), padding=(2, 2), dilation=(2, 2), groups=16, bias=False)
                (2): Conv2d(16, 16, kernel_size=(1, 1), stride=(1, 1), bias=False)
                (3): BatchNorm2d(16, eps=1e-05, momentum=0.1, affine=False, track_running_stats=True)
              )
            )
            (2): Identity()
            (3): Sequential(
              (0): AvgPool2d(kernel_size=3, stride=1, padding=1)
              (1): BatchNorm2d(16, eps=1e-05, momentum=0.1, affine=False, track_running_stats=True)
            )
            (4): Sequential(
              (0): MaxPool2d(kernel_size=3, stride=1, padding=1, dilation=1, ceil_mode=False)
              (1): BatchNorm2d(16, eps=1e-05, momentum=0.1, affine=False, track_running_stats=True)
            )
            (5): Zero()
            (6): CBAM(
              (ChannelGate): ChannelGate(
                (mlp): Sequential(
                  (0): Flatten()
                  (1): Linear(in_features=16, out_features=1, bias=True)
                  (2): ReLU()
                  (3): Linear(in_features=1, out_features=16, bias=True)
                )
              )
              (SpatialGate): SpatialGate(
                (compress): ChannelPool()
                (spatial): BasicConv(
                  (conv): Conv2d(2, 1, kernel_size=(7, 7), stride=(1, 1), padding=(3, 3), bias=False)
                  (bn): BatchNorm2d(1, eps=1e-05, momentum=0.01, affine=True, track_running_stats=True)
                )
              )
            )
            (7): eca(
              (avg_pool): AdaptiveAvgPool2d(output_size=1)
              (conv): Conv1d(1, 1, kernel_size=(3,), stride=(1,), padding=(1,), bias=False)
              (sigmoid): Sigmoid()
            )
          )
          (attention): AttentionModule(
            (avg_pool): AdaptiveAvgPool2d(output_size=1)
            (fc): Sequential(
              (0): Linear(in_features=128, out_features=16, bias=False)
              (1): ReLU(inplace=True)
              (2): Linear(in_features=16, out_features=128, bias=False)
              (3): Sigmoid()
            )
          )
        )
        (10): MixedOp(
          (_ops): ModuleList(
            (0): SepConv(
              (op): Sequential(
                (0): ReLU()
                (1): Conv2d(16, 16, kernel_size=(3, 3), stride=(1, 1), padding=(1, 1), groups=16, bias=False)
                (2): Conv2d(16, 16, kernel_size=(1, 1), stride=(1, 1), bias=False)
                (3): BatchNorm2d(16, eps=1e-05, momentum=0.1, affine=False, track_running_stats=True)
                (4): ReLU()
                (5): Conv2d(16, 16, kernel_size=(3, 3), stride=(1, 1), padding=(1, 1), groups=16, bias=False)
                (6): Conv2d(16, 16, kernel_size=(1, 1), stride=(1, 1), bias=False)
                (7): BatchNorm2d(16, eps=1e-05, momentum=0.1, affine=False, track_running_stats=True)
              )
            )
            (1): DilConv(
              (op): Sequential(
                (0): ReLU()
                (1): Conv2d(16, 16, kernel_size=(3, 3), stride=(1, 1), padding=(2, 2), dilation=(2, 2), groups=16, bias=False)
                (2): Conv2d(16, 16, kernel_size=(1, 1), stride=(1, 1), bias=False)
                (3): BatchNorm2d(16, eps=1e-05, momentum=0.1, affine=False, track_running_stats=True)
              )
            )
            (2): Identity()
            (3): Sequential(
              (0): AvgPool2d(kernel_size=3, stride=1, padding=1)
              (1): BatchNorm2d(16, eps=1e-05, momentum=0.1, affine=False, track_running_stats=True)
            )
            (4): Sequential(
              (0): MaxPool2d(kernel_size=3, stride=1, padding=1, dilation=1, ceil_mode=False)
              (1): BatchNorm2d(16, eps=1e-05, momentum=0.1, affine=False, track_running_stats=True)
            )
            (5): Zero()
            (6): CBAM(
              (ChannelGate): ChannelGate(
                (mlp): Sequential(
                  (0): Flatten()
                  (1): Linear(in_features=16, out_features=1, bias=True)
                  (2): ReLU()
                  (3): Linear(in_features=1, out_features=16, bias=True)
                )
              )
              (SpatialGate): SpatialGate(
                (compress): ChannelPool()
                (spatial): BasicConv(
                  (conv): Conv2d(2, 1, kernel_size=(7, 7), stride=(1, 1), padding=(3, 3), bias=False)
                  (bn): BatchNorm2d(1, eps=1e-05, momentum=0.01, affine=True, track_running_stats=True)
                )
              )
            )
            (7): eca(
              (avg_pool): AdaptiveAvgPool2d(output_size=1)
              (conv): Conv1d(1, 1, kernel_size=(3,), stride=(1,), padding=(1,), bias=False)
              (sigmoid): Sigmoid()
            )
          )
          (attention): AttentionModule(
            (avg_pool): AdaptiveAvgPool2d(output_size=1)
            (fc): Sequential(
              (0): Linear(in_features=128, out_features=16, bias=False)
              (1): ReLU(inplace=True)
              (2): Linear(in_features=16, out_features=128, bias=False)
              (3): Sigmoid()
            )
          )
        )
        (11): MixedOp(
          (_ops): ModuleList(
            (0): SepConv(
              (op): Sequential(
                (0): ReLU()
                (1): Conv2d(16, 16, kernel_size=(3, 3), stride=(1, 1), padding=(1, 1), groups=16, bias=False)
                (2): Conv2d(16, 16, kernel_size=(1, 1), stride=(1, 1), bias=False)
                (3): BatchNorm2d(16, eps=1e-05, momentum=0.1, affine=False, track_running_stats=True)
                (4): ReLU()
                (5): Conv2d(16, 16, kernel_size=(3, 3), stride=(1, 1), padding=(1, 1), groups=16, bias=False)
                (6): Conv2d(16, 16, kernel_size=(1, 1), stride=(1, 1), bias=False)
                (7): BatchNorm2d(16, eps=1e-05, momentum=0.1, affine=False, track_running_stats=True)
              )
            )
            (1): DilConv(
              (op): Sequential(
                (0): ReLU()
                (1): Conv2d(16, 16, kernel_size=(3, 3), stride=(1, 1), padding=(2, 2), dilation=(2, 2), groups=16, bias=False)
                (2): Conv2d(16, 16, kernel_size=(1, 1), stride=(1, 1), bias=False)
                (3): BatchNorm2d(16, eps=1e-05, momentum=0.1, affine=False, track_running_stats=True)
              )
            )
            (2): Identity()
            (3): Sequential(
              (0): AvgPool2d(kernel_size=3, stride=1, padding=1)
              (1): BatchNorm2d(16, eps=1e-05, momentum=0.1, affine=False, track_running_stats=True)
            )
            (4): Sequential(
              (0): MaxPool2d(kernel_size=3, stride=1, padding=1, dilation=1, ceil_mode=False)
              (1): BatchNorm2d(16, eps=1e-05, momentum=0.1, affine=False, track_running_stats=True)
            )
            (5): Zero()
            (6): CBAM(
              (ChannelGate): ChannelGate(
                (mlp): Sequential(
                  (0): Flatten()
                  (1): Linear(in_features=16, out_features=1, bias=True)
                  (2): ReLU()
                  (3): Linear(in_features=1, out_features=16, bias=True)
                )
              )
              (SpatialGate): SpatialGate(
                (compress): ChannelPool()
                (spatial): BasicConv(
                  (conv): Conv2d(2, 1, kernel_size=(7, 7), stride=(1, 1), padding=(3, 3), bias=False)
                  (bn): BatchNorm2d(1, eps=1e-05, momentum=0.01, affine=True, track_running_stats=True)
                )
              )
            )
            (7): eca(
              (avg_pool): AdaptiveAvgPool2d(output_size=1)
              (conv): Conv1d(1, 1, kernel_size=(3,), stride=(1,), padding=(1,), bias=False)
              (sigmoid): Sigmoid()
            )
          )
          (attention): AttentionModule(
            (avg_pool): AdaptiveAvgPool2d(output_size=1)
            (fc): Sequential(
              (0): Linear(in_features=128, out_features=16, bias=False)
              (1): ReLU(inplace=True)
              (2): Linear(in_features=16, out_features=128, bias=False)
              (3): Sigmoid()
            )
          )
        )
        (12): MixedOp(
          (_ops): ModuleList(
            (0): SepConv(
              (op): Sequential(
                (0): ReLU()
                (1): Conv2d(16, 16, kernel_size=(3, 3), stride=(1, 1), padding=(1, 1), groups=16, bias=False)
                (2): Conv2d(16, 16, kernel_size=(1, 1), stride=(1, 1), bias=False)
                (3): BatchNorm2d(16, eps=1e-05, momentum=0.1, affine=False, track_running_stats=True)
                (4): ReLU()
                (5): Conv2d(16, 16, kernel_size=(3, 3), stride=(1, 1), padding=(1, 1), groups=16, bias=False)
                (6): Conv2d(16, 16, kernel_size=(1, 1), stride=(1, 1), bias=False)
                (7): BatchNorm2d(16, eps=1e-05, momentum=0.1, affine=False, track_running_stats=True)
              )
            )
            (1): DilConv(
              (op): Sequential(
                (0): ReLU()
                (1): Conv2d(16, 16, kernel_size=(3, 3), stride=(1, 1), padding=(2, 2), dilation=(2, 2), groups=16, bias=False)
                (2): Conv2d(16, 16, kernel_size=(1, 1), stride=(1, 1), bias=False)
                (3): BatchNorm2d(16, eps=1e-05, momentum=0.1, affine=False, track_running_stats=True)
              )
            )
            (2): Identity()
            (3): Sequential(
              (0): AvgPool2d(kernel_size=3, stride=1, padding=1)
              (1): BatchNorm2d(16, eps=1e-05, momentum=0.1, affine=False, track_running_stats=True)
            )
            (4): Sequential(
              (0): MaxPool2d(kernel_size=3, stride=1, padding=1, dilation=1, ceil_mode=False)
              (1): BatchNorm2d(16, eps=1e-05, momentum=0.1, affine=False, track_running_stats=True)
            )
            (5): Zero()
            (6): CBAM(
              (ChannelGate): ChannelGate(
                (mlp): Sequential(
                  (0): Flatten()
                  (1): Linear(in_features=16, out_features=1, bias=True)
                  (2): ReLU()
                  (3): Linear(in_features=1, out_features=16, bias=True)
                )
              )
              (SpatialGate): SpatialGate(
                (compress): ChannelPool()
                (spatial): BasicConv(
                  (conv): Conv2d(2, 1, kernel_size=(7, 7), stride=(1, 1), padding=(3, 3), bias=False)
                  (bn): BatchNorm2d(1, eps=1e-05, momentum=0.01, affine=True, track_running_stats=True)
                )
              )
            )
            (7): eca(
              (avg_pool): AdaptiveAvgPool2d(output_size=1)
              (conv): Conv1d(1, 1, kernel_size=(3,), stride=(1,), padding=(1,), bias=False)
              (sigmoid): Sigmoid()
            )
          )
          (attention): AttentionModule(
            (avg_pool): AdaptiveAvgPool2d(output_size=1)
            (fc): Sequential(
              (0): Linear(in_features=128, out_features=16, bias=False)
              (1): ReLU(inplace=True)
              (2): Linear(in_features=16, out_features=128, bias=False)
              (3): Sigmoid()
            )
          )
        )
        (13): MixedOp(
          (_ops): ModuleList(
            (0): SepConv(
              (op): Sequential(
                (0): ReLU()
                (1): Conv2d(16, 16, kernel_size=(3, 3), stride=(1, 1), padding=(1, 1), groups=16, bias=False)
                (2): Conv2d(16, 16, kernel_size=(1, 1), stride=(1, 1), bias=False)
                (3): BatchNorm2d(16, eps=1e-05, momentum=0.1, affine=False, track_running_stats=True)
                (4): ReLU()
                (5): Conv2d(16, 16, kernel_size=(3, 3), stride=(1, 1), padding=(1, 1), groups=16, bias=False)
                (6): Conv2d(16, 16, kernel_size=(1, 1), stride=(1, 1), bias=False)
                (7): BatchNorm2d(16, eps=1e-05, momentum=0.1, affine=False, track_running_stats=True)
              )
            )
            (1): DilConv(
              (op): Sequential(
                (0): ReLU()
                (1): Conv2d(16, 16, kernel_size=(3, 3), stride=(1, 1), padding=(2, 2), dilation=(2, 2), groups=16, bias=False)
                (2): Conv2d(16, 16, kernel_size=(1, 1), stride=(1, 1), bias=False)
                (3): BatchNorm2d(16, eps=1e-05, momentum=0.1, affine=False, track_running_stats=True)
              )
            )
            (2): Identity()
            (3): Sequential(
              (0): AvgPool2d(kernel_size=3, stride=1, padding=1)
              (1): BatchNorm2d(16, eps=1e-05, momentum=0.1, affine=False, track_running_stats=True)
            )
            (4): Sequential(
              (0): MaxPool2d(kernel_size=3, stride=1, padding=1, dilation=1, ceil_mode=False)
              (1): BatchNorm2d(16, eps=1e-05, momentum=0.1, affine=False, track_running_stats=True)
            )
            (5): Zero()
            (6): CBAM(
              (ChannelGate): ChannelGate(
                (mlp): Sequential(
                  (0): Flatten()
                  (1): Linear(in_features=16, out_features=1, bias=True)
                  (2): ReLU()
                  (3): Linear(in_features=1, out_features=16, bias=True)
                )
              )
              (SpatialGate): SpatialGate(
                (compress): ChannelPool()
                (spatial): BasicConv(
                  (conv): Conv2d(2, 1, kernel_size=(7, 7), stride=(1, 1), padding=(3, 3), bias=False)
                  (bn): BatchNorm2d(1, eps=1e-05, momentum=0.01, affine=True, track_running_stats=True)
                )
              )
            )
            (7): eca(
              (avg_pool): AdaptiveAvgPool2d(output_size=1)
              (conv): Conv1d(1, 1, kernel_size=(3,), stride=(1,), padding=(1,), bias=False)
              (sigmoid): Sigmoid()
            )
          )
          (attention): AttentionModule(
            (avg_pool): AdaptiveAvgPool2d(output_size=1)
            (fc): Sequential(
              (0): Linear(in_features=128, out_features=16, bias=False)
              (1): ReLU(inplace=True)
              (2): Linear(in_features=16, out_features=128, bias=False)
              (3): Sigmoid()
            )
          )
        )
      )
      (_bns): ModuleList()
    )
    (1): Cell(
      (preprocess0): ReLUConvBN(
        (op): Sequential(
          (0): ReLU()
          (1): Conv2d(48, 16, kernel_size=(1, 1), stride=(1, 1), bias=False)
          (2): BatchNorm2d(16, eps=1e-05, momentum=0.1, affine=False, track_running_stats=True)
        )
      )
      (preprocess1): ReLUConvBN(
        (op): Sequential(
          (0): ReLU()
          (1): Conv2d(64, 16, kernel_size=(1, 1), stride=(1, 1), bias=False)
          (2): BatchNorm2d(16, eps=1e-05, momentum=0.1, affine=False, track_running_stats=True)
        )
      )
      (_ops): ModuleList(
        (0): MixedOp(
          (_ops): ModuleList(
            (0): SepConv(
              (op): Sequential(
                (0): ReLU()
                (1): Conv2d(16, 16, kernel_size=(3, 3), stride=(1, 1), padding=(1, 1), groups=16, bias=False)
                (2): Conv2d(16, 16, kernel_size=(1, 1), stride=(1, 1), bias=False)
                (3): BatchNorm2d(16, eps=1e-05, momentum=0.1, affine=False, track_running_stats=True)
                (4): ReLU()
                (5): Conv2d(16, 16, kernel_size=(3, 3), stride=(1, 1), padding=(1, 1), groups=16, bias=False)
                (6): Conv2d(16, 16, kernel_size=(1, 1), stride=(1, 1), bias=False)
                (7): BatchNorm2d(16, eps=1e-05, momentum=0.1, affine=False, track_running_stats=True)
              )
            )
            (1): DilConv(
              (op): Sequential(
                (0): ReLU()
                (1): Conv2d(16, 16, kernel_size=(3, 3), stride=(1, 1), padding=(2, 2), dilation=(2, 2), groups=16, bias=False)
                (2): Conv2d(16, 16, kernel_size=(1, 1), stride=(1, 1), bias=False)
                (3): BatchNorm2d(16, eps=1e-05, momentum=0.1, affine=False, track_running_stats=True)
              )
            )
            (2): Identity()
            (3): Sequential(
              (0): AvgPool2d(kernel_size=3, stride=1, padding=1)
              (1): BatchNorm2d(16, eps=1e-05, momentum=0.1, affine=False, track_running_stats=True)
            )
            (4): Sequential(
              (0): MaxPool2d(kernel_size=3, stride=1, padding=1, dilation=1, ceil_mode=False)
              (1): BatchNorm2d(16, eps=1e-05, momentum=0.1, affine=False, track_running_stats=True)
            )
            (5): Zero()
            (6): CBAM(
              (ChannelGate): ChannelGate(
                (mlp): Sequential(
                  (0): Flatten()
                  (1): Linear(in_features=16, out_features=1, bias=True)
                  (2): ReLU()
                  (3): Linear(in_features=1, out_features=16, bias=True)
                )
              )
              (SpatialGate): SpatialGate(
                (compress): ChannelPool()
                (spatial): BasicConv(
                  (conv): Conv2d(2, 1, kernel_size=(7, 7), stride=(1, 1), padding=(3, 3), bias=False)
                  (bn): BatchNorm2d(1, eps=1e-05, momentum=0.01, affine=True, track_running_stats=True)
                )
              )
            )
            (7): eca(
              (avg_pool): AdaptiveAvgPool2d(output_size=1)
              (conv): Conv1d(1, 1, kernel_size=(3,), stride=(1,), padding=(1,), bias=False)
              (sigmoid): Sigmoid()
            )
          )
          (attention): AttentionModule(
            (avg_pool): AdaptiveAvgPool2d(output_size=1)
            (fc): Sequential(
              (0): Linear(in_features=128, out_features=16, bias=False)
              (1): ReLU(inplace=True)
              (2): Linear(in_features=16, out_features=128, bias=False)
              (3): Sigmoid()
            )
          )
        )
        (1): MixedOp(
          (_ops): ModuleList(
            (0): SepConv(
              (op): Sequential(
                (0): ReLU()
                (1): Conv2d(16, 16, kernel_size=(3, 3), stride=(1, 1), padding=(1, 1), groups=16, bias=False)
                (2): Conv2d(16, 16, kernel_size=(1, 1), stride=(1, 1), bias=False)
                (3): BatchNorm2d(16, eps=1e-05, momentum=0.1, affine=False, track_running_stats=True)
                (4): ReLU()
                (5): Conv2d(16, 16, kernel_size=(3, 3), stride=(1, 1), padding=(1, 1), groups=16, bias=False)
                (6): Conv2d(16, 16, kernel_size=(1, 1), stride=(1, 1), bias=False)
                (7): BatchNorm2d(16, eps=1e-05, momentum=0.1, affine=False, track_running_stats=True)
              )
            )
            (1): DilConv(
              (op): Sequential(
                (0): ReLU()
                (1): Conv2d(16, 16, kernel_size=(3, 3), stride=(1, 1), padding=(2, 2), dilation=(2, 2), groups=16, bias=False)
                (2): Conv2d(16, 16, kernel_size=(1, 1), stride=(1, 1), bias=False)
                (3): BatchNorm2d(16, eps=1e-05, momentum=0.1, affine=False, track_running_stats=True)
              )
            )
            (2): Identity()
            (3): Sequential(
              (0): AvgPool2d(kernel_size=3, stride=1, padding=1)
              (1): BatchNorm2d(16, eps=1e-05, momentum=0.1, affine=False, track_running_stats=True)
            )
            (4): Sequential(
              (0): MaxPool2d(kernel_size=3, stride=1, padding=1, dilation=1, ceil_mode=False)
              (1): BatchNorm2d(16, eps=1e-05, momentum=0.1, affine=False, track_running_stats=True)
            )
            (5): Zero()
            (6): CBAM(
              (ChannelGate): ChannelGate(
                (mlp): Sequential(
                  (0): Flatten()
                  (1): Linear(in_features=16, out_features=1, bias=True)
                  (2): ReLU()
                  (3): Linear(in_features=1, out_features=16, bias=True)
                )
              )
              (SpatialGate): SpatialGate(
                (compress): ChannelPool()
                (spatial): BasicConv(
                  (conv): Conv2d(2, 1, kernel_size=(7, 7), stride=(1, 1), padding=(3, 3), bias=False)
                  (bn): BatchNorm2d(1, eps=1e-05, momentum=0.01, affine=True, track_running_stats=True)
                )
              )
            )
            (7): eca(
              (avg_pool): AdaptiveAvgPool2d(output_size=1)
              (conv): Conv1d(1, 1, kernel_size=(3,), stride=(1,), padding=(1,), bias=False)
              (sigmoid): Sigmoid()
            )
          )
          (attention): AttentionModule(
            (avg_pool): AdaptiveAvgPool2d(output_size=1)
            (fc): Sequential(
              (0): Linear(in_features=128, out_features=16, bias=False)
              (1): ReLU(inplace=True)
              (2): Linear(in_features=16, out_features=128, bias=False)
              (3): Sigmoid()
            )
          )
        )
        (2): MixedOp(
          (_ops): ModuleList(
            (0): SepConv(
              (op): Sequential(
                (0): ReLU()
                (1): Conv2d(16, 16, kernel_size=(3, 3), stride=(1, 1), padding=(1, 1), groups=16, bias=False)
                (2): Conv2d(16, 16, kernel_size=(1, 1), stride=(1, 1), bias=False)
                (3): BatchNorm2d(16, eps=1e-05, momentum=0.1, affine=False, track_running_stats=True)
                (4): ReLU()
                (5): Conv2d(16, 16, kernel_size=(3, 3), stride=(1, 1), padding=(1, 1), groups=16, bias=False)
                (6): Conv2d(16, 16, kernel_size=(1, 1), stride=(1, 1), bias=False)
                (7): BatchNorm2d(16, eps=1e-05, momentum=0.1, affine=False, track_running_stats=True)
              )
            )
            (1): DilConv(
              (op): Sequential(
                (0): ReLU()
                (1): Conv2d(16, 16, kernel_size=(3, 3), stride=(1, 1), padding=(2, 2), dilation=(2, 2), groups=16, bias=False)
                (2): Conv2d(16, 16, kernel_size=(1, 1), stride=(1, 1), bias=False)
                (3): BatchNorm2d(16, eps=1e-05, momentum=0.1, affine=False, track_running_stats=True)
              )
            )
            (2): Identity()
            (3): Sequential(
              (0): AvgPool2d(kernel_size=3, stride=1, padding=1)
              (1): BatchNorm2d(16, eps=1e-05, momentum=0.1, affine=False, track_running_stats=True)
            )
            (4): Sequential(
              (0): MaxPool2d(kernel_size=3, stride=1, padding=1, dilation=1, ceil_mode=False)
              (1): BatchNorm2d(16, eps=1e-05, momentum=0.1, affine=False, track_running_stats=True)
            )
            (5): Zero()
            (6): CBAM(
              (ChannelGate): ChannelGate(
                (mlp): Sequential(
                  (0): Flatten()
                  (1): Linear(in_features=16, out_features=1, bias=True)
                  (2): ReLU()
                  (3): Linear(in_features=1, out_features=16, bias=True)
                )
              )
              (SpatialGate): SpatialGate(
                (compress): ChannelPool()
                (spatial): BasicConv(
                  (conv): Conv2d(2, 1, kernel_size=(7, 7), stride=(1, 1), padding=(3, 3), bias=False)
                  (bn): BatchNorm2d(1, eps=1e-05, momentum=0.01, affine=True, track_running_stats=True)
                )
              )
            )
            (7): eca(
              (avg_pool): AdaptiveAvgPool2d(output_size=1)
              (conv): Conv1d(1, 1, kernel_size=(3,), stride=(1,), padding=(1,), bias=False)
              (sigmoid): Sigmoid()
            )
          )
          (attention): AttentionModule(
            (avg_pool): AdaptiveAvgPool2d(output_size=1)
            (fc): Sequential(
              (0): Linear(in_features=128, out_features=16, bias=False)
              (1): ReLU(inplace=True)
              (2): Linear(in_features=16, out_features=128, bias=False)
              (3): Sigmoid()
            )
          )
        )
        (3): MixedOp(
          (_ops): ModuleList(
            (0): SepConv(
              (op): Sequential(
                (0): ReLU()
                (1): Conv2d(16, 16, kernel_size=(3, 3), stride=(1, 1), padding=(1, 1), groups=16, bias=False)
                (2): Conv2d(16, 16, kernel_size=(1, 1), stride=(1, 1), bias=False)
                (3): BatchNorm2d(16, eps=1e-05, momentum=0.1, affine=False, track_running_stats=True)
                (4): ReLU()
                (5): Conv2d(16, 16, kernel_size=(3, 3), stride=(1, 1), padding=(1, 1), groups=16, bias=False)
                (6): Conv2d(16, 16, kernel_size=(1, 1), stride=(1, 1), bias=False)
                (7): BatchNorm2d(16, eps=1e-05, momentum=0.1, affine=False, track_running_stats=True)
              )
            )
            (1): DilConv(
              (op): Sequential(
                (0): ReLU()
                (1): Conv2d(16, 16, kernel_size=(3, 3), stride=(1, 1), padding=(2, 2), dilation=(2, 2), groups=16, bias=False)
                (2): Conv2d(16, 16, kernel_size=(1, 1), stride=(1, 1), bias=False)
                (3): BatchNorm2d(16, eps=1e-05, momentum=0.1, affine=False, track_running_stats=True)
              )
            )
            (2): Identity()
            (3): Sequential(
              (0): AvgPool2d(kernel_size=3, stride=1, padding=1)
              (1): BatchNorm2d(16, eps=1e-05, momentum=0.1, affine=False, track_running_stats=True)
            )
            (4): Sequential(
              (0): MaxPool2d(kernel_size=3, stride=1, padding=1, dilation=1, ceil_mode=False)
              (1): BatchNorm2d(16, eps=1e-05, momentum=0.1, affine=False, track_running_stats=True)
            )
            (5): Zero()
            (6): CBAM(
              (ChannelGate): ChannelGate(
                (mlp): Sequential(
                  (0): Flatten()
                  (1): Linear(in_features=16, out_features=1, bias=True)
                  (2): ReLU()
                  (3): Linear(in_features=1, out_features=16, bias=True)
                )
              )
              (SpatialGate): SpatialGate(
                (compress): ChannelPool()
                (spatial): BasicConv(
                  (conv): Conv2d(2, 1, kernel_size=(7, 7), stride=(1, 1), padding=(3, 3), bias=False)
                  (bn): BatchNorm2d(1, eps=1e-05, momentum=0.01, affine=True, track_running_stats=True)
                )
              )
            )
            (7): eca(
              (avg_pool): AdaptiveAvgPool2d(output_size=1)
              (conv): Conv1d(1, 1, kernel_size=(3,), stride=(1,), padding=(1,), bias=False)
              (sigmoid): Sigmoid()
            )
          )
          (attention): AttentionModule(
            (avg_pool): AdaptiveAvgPool2d(output_size=1)
            (fc): Sequential(
              (0): Linear(in_features=128, out_features=16, bias=False)
              (1): ReLU(inplace=True)
              (2): Linear(in_features=16, out_features=128, bias=False)
              (3): Sigmoid()
            )
          )
        )
        (4): MixedOp(
          (_ops): ModuleList(
            (0): SepConv(
              (op): Sequential(
                (0): ReLU()
                (1): Conv2d(16, 16, kernel_size=(3, 3), stride=(1, 1), padding=(1, 1), groups=16, bias=False)
                (2): Conv2d(16, 16, kernel_size=(1, 1), stride=(1, 1), bias=False)
                (3): BatchNorm2d(16, eps=1e-05, momentum=0.1, affine=False, track_running_stats=True)
                (4): ReLU()
                (5): Conv2d(16, 16, kernel_size=(3, 3), stride=(1, 1), padding=(1, 1), groups=16, bias=False)
                (6): Conv2d(16, 16, kernel_size=(1, 1), stride=(1, 1), bias=False)
                (7): BatchNorm2d(16, eps=1e-05, momentum=0.1, affine=False, track_running_stats=True)
              )
            )
            (1): DilConv(
              (op): Sequential(
                (0): ReLU()
                (1): Conv2d(16, 16, kernel_size=(3, 3), stride=(1, 1), padding=(2, 2), dilation=(2, 2), groups=16, bias=False)
                (2): Conv2d(16, 16, kernel_size=(1, 1), stride=(1, 1), bias=False)
                (3): BatchNorm2d(16, eps=1e-05, momentum=0.1, affine=False, track_running_stats=True)
              )
            )
            (2): Identity()
            (3): Sequential(
              (0): AvgPool2d(kernel_size=3, stride=1, padding=1)
              (1): BatchNorm2d(16, eps=1e-05, momentum=0.1, affine=False, track_running_stats=True)
            )
            (4): Sequential(
              (0): MaxPool2d(kernel_size=3, stride=1, padding=1, dilation=1, ceil_mode=False)
              (1): BatchNorm2d(16, eps=1e-05, momentum=0.1, affine=False, track_running_stats=True)
            )
            (5): Zero()
            (6): CBAM(
              (ChannelGate): ChannelGate(
                (mlp): Sequential(
                  (0): Flatten()
                  (1): Linear(in_features=16, out_features=1, bias=True)
                  (2): ReLU()
                  (3): Linear(in_features=1, out_features=16, bias=True)
                )
              )
              (SpatialGate): SpatialGate(
                (compress): ChannelPool()
                (spatial): BasicConv(
                  (conv): Conv2d(2, 1, kernel_size=(7, 7), stride=(1, 1), padding=(3, 3), bias=False)
                  (bn): BatchNorm2d(1, eps=1e-05, momentum=0.01, affine=True, track_running_stats=True)
                )
              )
            )
            (7): eca(
              (avg_pool): AdaptiveAvgPool2d(output_size=1)
              (conv): Conv1d(1, 1, kernel_size=(3,), stride=(1,), padding=(1,), bias=False)
              (sigmoid): Sigmoid()
            )
          )
          (attention): AttentionModule(
            (avg_pool): AdaptiveAvgPool2d(output_size=1)
            (fc): Sequential(
              (0): Linear(in_features=128, out_features=16, bias=False)
              (1): ReLU(inplace=True)
              (2): Linear(in_features=16, out_features=128, bias=False)
              (3): Sigmoid()
            )
          )
        )
        (5): MixedOp(
          (_ops): ModuleList(
            (0): SepConv(
              (op): Sequential(
                (0): ReLU()
                (1): Conv2d(16, 16, kernel_size=(3, 3), stride=(1, 1), padding=(1, 1), groups=16, bias=False)
                (2): Conv2d(16, 16, kernel_size=(1, 1), stride=(1, 1), bias=False)
                (3): BatchNorm2d(16, eps=1e-05, momentum=0.1, affine=False, track_running_stats=True)
                (4): ReLU()
                (5): Conv2d(16, 16, kernel_size=(3, 3), stride=(1, 1), padding=(1, 1), groups=16, bias=False)
                (6): Conv2d(16, 16, kernel_size=(1, 1), stride=(1, 1), bias=False)
                (7): BatchNorm2d(16, eps=1e-05, momentum=0.1, affine=False, track_running_stats=True)
              )
            )
            (1): DilConv(
              (op): Sequential(
                (0): ReLU()
                (1): Conv2d(16, 16, kernel_size=(3, 3), stride=(1, 1), padding=(2, 2), dilation=(2, 2), groups=16, bias=False)
                (2): Conv2d(16, 16, kernel_size=(1, 1), stride=(1, 1), bias=False)
                (3): BatchNorm2d(16, eps=1e-05, momentum=0.1, affine=False, track_running_stats=True)
              )
            )
            (2): Identity()
            (3): Sequential(
              (0): AvgPool2d(kernel_size=3, stride=1, padding=1)
              (1): BatchNorm2d(16, eps=1e-05, momentum=0.1, affine=False, track_running_stats=True)
            )
            (4): Sequential(
              (0): MaxPool2d(kernel_size=3, stride=1, padding=1, dilation=1, ceil_mode=False)
              (1): BatchNorm2d(16, eps=1e-05, momentum=0.1, affine=False, track_running_stats=True)
            )
            (5): Zero()
            (6): CBAM(
              (ChannelGate): ChannelGate(
                (mlp): Sequential(
                  (0): Flatten()
                  (1): Linear(in_features=16, out_features=1, bias=True)
                  (2): ReLU()
                  (3): Linear(in_features=1, out_features=16, bias=True)
                )
              )
              (SpatialGate): SpatialGate(
                (compress): ChannelPool()
                (spatial): BasicConv(
                  (conv): Conv2d(2, 1, kernel_size=(7, 7), stride=(1, 1), padding=(3, 3), bias=False)
                  (bn): BatchNorm2d(1, eps=1e-05, momentum=0.01, affine=True, track_running_stats=True)
                )
              )
            )
            (7): eca(
              (avg_pool): AdaptiveAvgPool2d(output_size=1)
              (conv): Conv1d(1, 1, kernel_size=(3,), stride=(1,), padding=(1,), bias=False)
              (sigmoid): Sigmoid()
            )
          )
          (attention): AttentionModule(
            (avg_pool): AdaptiveAvgPool2d(output_size=1)
            (fc): Sequential(
              (0): Linear(in_features=128, out_features=16, bias=False)
              (1): ReLU(inplace=True)
              (2): Linear(in_features=16, out_features=128, bias=False)
              (3): Sigmoid()
            )
          )
        )
        (6): MixedOp(
          (_ops): ModuleList(
            (0): SepConv(
              (op): Sequential(
                (0): ReLU()
                (1): Conv2d(16, 16, kernel_size=(3, 3), stride=(1, 1), padding=(1, 1), groups=16, bias=False)
                (2): Conv2d(16, 16, kernel_size=(1, 1), stride=(1, 1), bias=False)
                (3): BatchNorm2d(16, eps=1e-05, momentum=0.1, affine=False, track_running_stats=True)
                (4): ReLU()
                (5): Conv2d(16, 16, kernel_size=(3, 3), stride=(1, 1), padding=(1, 1), groups=16, bias=False)
                (6): Conv2d(16, 16, kernel_size=(1, 1), stride=(1, 1), bias=False)
                (7): BatchNorm2d(16, eps=1e-05, momentum=0.1, affine=False, track_running_stats=True)
              )
            )
            (1): DilConv(
              (op): Sequential(
                (0): ReLU()
                (1): Conv2d(16, 16, kernel_size=(3, 3), stride=(1, 1), padding=(2, 2), dilation=(2, 2), groups=16, bias=False)
                (2): Conv2d(16, 16, kernel_size=(1, 1), stride=(1, 1), bias=False)
                (3): BatchNorm2d(16, eps=1e-05, momentum=0.1, affine=False, track_running_stats=True)
              )
            )
            (2): Identity()
            (3): Sequential(
              (0): AvgPool2d(kernel_size=3, stride=1, padding=1)
              (1): BatchNorm2d(16, eps=1e-05, momentum=0.1, affine=False, track_running_stats=True)
            )
            (4): Sequential(
              (0): MaxPool2d(kernel_size=3, stride=1, padding=1, dilation=1, ceil_mode=False)
              (1): BatchNorm2d(16, eps=1e-05, momentum=0.1, affine=False, track_running_stats=True)
            )
            (5): Zero()
            (6): CBAM(
              (ChannelGate): ChannelGate(
                (mlp): Sequential(
                  (0): Flatten()
                  (1): Linear(in_features=16, out_features=1, bias=True)
                  (2): ReLU()
                  (3): Linear(in_features=1, out_features=16, bias=True)
                )
              )
              (SpatialGate): SpatialGate(
                (compress): ChannelPool()
                (spatial): BasicConv(
                  (conv): Conv2d(2, 1, kernel_size=(7, 7), stride=(1, 1), padding=(3, 3), bias=False)
                  (bn): BatchNorm2d(1, eps=1e-05, momentum=0.01, affine=True, track_running_stats=True)
                )
              )
            )
            (7): eca(
              (avg_pool): AdaptiveAvgPool2d(output_size=1)
              (conv): Conv1d(1, 1, kernel_size=(3,), stride=(1,), padding=(1,), bias=False)
              (sigmoid): Sigmoid()
            )
          )
          (attention): AttentionModule(
            (avg_pool): AdaptiveAvgPool2d(output_size=1)
            (fc): Sequential(
              (0): Linear(in_features=128, out_features=16, bias=False)
              (1): ReLU(inplace=True)
              (2): Linear(in_features=16, out_features=128, bias=False)
              (3): Sigmoid()
            )
          )
        )
        (7): MixedOp(
          (_ops): ModuleList(
            (0): SepConv(
              (op): Sequential(
                (0): ReLU()
                (1): Conv2d(16, 16, kernel_size=(3, 3), stride=(1, 1), padding=(1, 1), groups=16, bias=False)
                (2): Conv2d(16, 16, kernel_size=(1, 1), stride=(1, 1), bias=False)
                (3): BatchNorm2d(16, eps=1e-05, momentum=0.1, affine=False, track_running_stats=True)
                (4): ReLU()
                (5): Conv2d(16, 16, kernel_size=(3, 3), stride=(1, 1), padding=(1, 1), groups=16, bias=False)
                (6): Conv2d(16, 16, kernel_size=(1, 1), stride=(1, 1), bias=False)
                (7): BatchNorm2d(16, eps=1e-05, momentum=0.1, affine=False, track_running_stats=True)
              )
            )
            (1): DilConv(
              (op): Sequential(
                (0): ReLU()
                (1): Conv2d(16, 16, kernel_size=(3, 3), stride=(1, 1), padding=(2, 2), dilation=(2, 2), groups=16, bias=False)
                (2): Conv2d(16, 16, kernel_size=(1, 1), stride=(1, 1), bias=False)
                (3): BatchNorm2d(16, eps=1e-05, momentum=0.1, affine=False, track_running_stats=True)
              )
            )
            (2): Identity()
            (3): Sequential(
              (0): AvgPool2d(kernel_size=3, stride=1, padding=1)
              (1): BatchNorm2d(16, eps=1e-05, momentum=0.1, affine=False, track_running_stats=True)
            )
            (4): Sequential(
              (0): MaxPool2d(kernel_size=3, stride=1, padding=1, dilation=1, ceil_mode=False)
              (1): BatchNorm2d(16, eps=1e-05, momentum=0.1, affine=False, track_running_stats=True)
            )
            (5): Zero()
            (6): CBAM(
              (ChannelGate): ChannelGate(
                (mlp): Sequential(
                  (0): Flatten()
                  (1): Linear(in_features=16, out_features=1, bias=True)
                  (2): ReLU()
                  (3): Linear(in_features=1, out_features=16, bias=True)
                )
              )
              (SpatialGate): SpatialGate(
                (compress): ChannelPool()
                (spatial): BasicConv(
                  (conv): Conv2d(2, 1, kernel_size=(7, 7), stride=(1, 1), padding=(3, 3), bias=False)
                  (bn): BatchNorm2d(1, eps=1e-05, momentum=0.01, affine=True, track_running_stats=True)
                )
              )
            )
            (7): eca(
              (avg_pool): AdaptiveAvgPool2d(output_size=1)
              (conv): Conv1d(1, 1, kernel_size=(3,), stride=(1,), padding=(1,), bias=False)
              (sigmoid): Sigmoid()
            )
          )
          (attention): AttentionModule(
            (avg_pool): AdaptiveAvgPool2d(output_size=1)
            (fc): Sequential(
              (0): Linear(in_features=128, out_features=16, bias=False)
              (1): ReLU(inplace=True)
              (2): Linear(in_features=16, out_features=128, bias=False)
              (3): Sigmoid()
            )
          )
        )
        (8): MixedOp(
          (_ops): ModuleList(
            (0): SepConv(
              (op): Sequential(
                (0): ReLU()
                (1): Conv2d(16, 16, kernel_size=(3, 3), stride=(1, 1), padding=(1, 1), groups=16, bias=False)
                (2): Conv2d(16, 16, kernel_size=(1, 1), stride=(1, 1), bias=False)
                (3): BatchNorm2d(16, eps=1e-05, momentum=0.1, affine=False, track_running_stats=True)
                (4): ReLU()
                (5): Conv2d(16, 16, kernel_size=(3, 3), stride=(1, 1), padding=(1, 1), groups=16, bias=False)
                (6): Conv2d(16, 16, kernel_size=(1, 1), stride=(1, 1), bias=False)
                (7): BatchNorm2d(16, eps=1e-05, momentum=0.1, affine=False, track_running_stats=True)
              )
            )
            (1): DilConv(
              (op): Sequential(
                (0): ReLU()
                (1): Conv2d(16, 16, kernel_size=(3, 3), stride=(1, 1), padding=(2, 2), dilation=(2, 2), groups=16, bias=False)
                (2): Conv2d(16, 16, kernel_size=(1, 1), stride=(1, 1), bias=False)
                (3): BatchNorm2d(16, eps=1e-05, momentum=0.1, affine=False, track_running_stats=True)
              )
            )
            (2): Identity()
            (3): Sequential(
              (0): AvgPool2d(kernel_size=3, stride=1, padding=1)
              (1): BatchNorm2d(16, eps=1e-05, momentum=0.1, affine=False, track_running_stats=True)
            )
            (4): Sequential(
              (0): MaxPool2d(kernel_size=3, stride=1, padding=1, dilation=1, ceil_mode=False)
              (1): BatchNorm2d(16, eps=1e-05, momentum=0.1, affine=False, track_running_stats=True)
            )
            (5): Zero()
            (6): CBAM(
              (ChannelGate): ChannelGate(
                (mlp): Sequential(
                  (0): Flatten()
                  (1): Linear(in_features=16, out_features=1, bias=True)
                  (2): ReLU()
                  (3): Linear(in_features=1, out_features=16, bias=True)
                )
              )
              (SpatialGate): SpatialGate(
                (compress): ChannelPool()
                (spatial): BasicConv(
                  (conv): Conv2d(2, 1, kernel_size=(7, 7), stride=(1, 1), padding=(3, 3), bias=False)
                  (bn): BatchNorm2d(1, eps=1e-05, momentum=0.01, affine=True, track_running_stats=True)
                )
              )
            )
            (7): eca(
              (avg_pool): AdaptiveAvgPool2d(output_size=1)
              (conv): Conv1d(1, 1, kernel_size=(3,), stride=(1,), padding=(1,), bias=False)
              (sigmoid): Sigmoid()
            )
          )
          (attention): AttentionModule(
            (avg_pool): AdaptiveAvgPool2d(output_size=1)
            (fc): Sequential(
              (0): Linear(in_features=128, out_features=16, bias=False)
              (1): ReLU(inplace=True)
              (2): Linear(in_features=16, out_features=128, bias=False)
              (3): Sigmoid()
            )
          )
        )
        (9): MixedOp(
          (_ops): ModuleList(
            (0): SepConv(
              (op): Sequential(
                (0): ReLU()
                (1): Conv2d(16, 16, kernel_size=(3, 3), stride=(1, 1), padding=(1, 1), groups=16, bias=False)
                (2): Conv2d(16, 16, kernel_size=(1, 1), stride=(1, 1), bias=False)
                (3): BatchNorm2d(16, eps=1e-05, momentum=0.1, affine=False, track_running_stats=True)
                (4): ReLU()
                (5): Conv2d(16, 16, kernel_size=(3, 3), stride=(1, 1), padding=(1, 1), groups=16, bias=False)
                (6): Conv2d(16, 16, kernel_size=(1, 1), stride=(1, 1), bias=False)
                (7): BatchNorm2d(16, eps=1e-05, momentum=0.1, affine=False, track_running_stats=True)
              )
            )
            (1): DilConv(
              (op): Sequential(
                (0): ReLU()
                (1): Conv2d(16, 16, kernel_size=(3, 3), stride=(1, 1), padding=(2, 2), dilation=(2, 2), groups=16, bias=False)
                (2): Conv2d(16, 16, kernel_size=(1, 1), stride=(1, 1), bias=False)
                (3): BatchNorm2d(16, eps=1e-05, momentum=0.1, affine=False, track_running_stats=True)
              )
            )
            (2): Identity()
            (3): Sequential(
              (0): AvgPool2d(kernel_size=3, stride=1, padding=1)
              (1): BatchNorm2d(16, eps=1e-05, momentum=0.1, affine=False, track_running_stats=True)
            )
            (4): Sequential(
              (0): MaxPool2d(kernel_size=3, stride=1, padding=1, dilation=1, ceil_mode=False)
              (1): BatchNorm2d(16, eps=1e-05, momentum=0.1, affine=False, track_running_stats=True)
            )
            (5): Zero()
            (6): CBAM(
              (ChannelGate): ChannelGate(
                (mlp): Sequential(
                  (0): Flatten()
                  (1): Linear(in_features=16, out_features=1, bias=True)
                  (2): ReLU()
                  (3): Linear(in_features=1, out_features=16, bias=True)
                )
              )
              (SpatialGate): SpatialGate(
                (compress): ChannelPool()
                (spatial): BasicConv(
                  (conv): Conv2d(2, 1, kernel_size=(7, 7), stride=(1, 1), padding=(3, 3), bias=False)
                  (bn): BatchNorm2d(1, eps=1e-05, momentum=0.01, affine=True, track_running_stats=True)
                )
              )
            )
            (7): eca(
              (avg_pool): AdaptiveAvgPool2d(output_size=1)
              (conv): Conv1d(1, 1, kernel_size=(3,), stride=(1,), padding=(1,), bias=False)
              (sigmoid): Sigmoid()
            )
          )
          (attention): AttentionModule(
            (avg_pool): AdaptiveAvgPool2d(output_size=1)
            (fc): Sequential(
              (0): Linear(in_features=128, out_features=16, bias=False)
              (1): ReLU(inplace=True)
              (2): Linear(in_features=16, out_features=128, bias=False)
              (3): Sigmoid()
            )
          )
        )
        (10): MixedOp(
          (_ops): ModuleList(
            (0): SepConv(
              (op): Sequential(
                (0): ReLU()
                (1): Conv2d(16, 16, kernel_size=(3, 3), stride=(1, 1), padding=(1, 1), groups=16, bias=False)
                (2): Conv2d(16, 16, kernel_size=(1, 1), stride=(1, 1), bias=False)
                (3): BatchNorm2d(16, eps=1e-05, momentum=0.1, affine=False, track_running_stats=True)
                (4): ReLU()
                (5): Conv2d(16, 16, kernel_size=(3, 3), stride=(1, 1), padding=(1, 1), groups=16, bias=False)
                (6): Conv2d(16, 16, kernel_size=(1, 1), stride=(1, 1), bias=False)
                (7): BatchNorm2d(16, eps=1e-05, momentum=0.1, affine=False, track_running_stats=True)
              )
            )
            (1): DilConv(
              (op): Sequential(
                (0): ReLU()
                (1): Conv2d(16, 16, kernel_size=(3, 3), stride=(1, 1), padding=(2, 2), dilation=(2, 2), groups=16, bias=False)
                (2): Conv2d(16, 16, kernel_size=(1, 1), stride=(1, 1), bias=False)
                (3): BatchNorm2d(16, eps=1e-05, momentum=0.1, affine=False, track_running_stats=True)
              )
            )
            (2): Identity()
            (3): Sequential(
              (0): AvgPool2d(kernel_size=3, stride=1, padding=1)
              (1): BatchNorm2d(16, eps=1e-05, momentum=0.1, affine=False, track_running_stats=True)
            )
            (4): Sequential(
              (0): MaxPool2d(kernel_size=3, stride=1, padding=1, dilation=1, ceil_mode=False)
              (1): BatchNorm2d(16, eps=1e-05, momentum=0.1, affine=False, track_running_stats=True)
            )
            (5): Zero()
            (6): CBAM(
              (ChannelGate): ChannelGate(
                (mlp): Sequential(
                  (0): Flatten()
                  (1): Linear(in_features=16, out_features=1, bias=True)
                  (2): ReLU()
                  (3): Linear(in_features=1, out_features=16, bias=True)
                )
              )
              (SpatialGate): SpatialGate(
                (compress): ChannelPool()
                (spatial): BasicConv(
                  (conv): Conv2d(2, 1, kernel_size=(7, 7), stride=(1, 1), padding=(3, 3), bias=False)
                  (bn): BatchNorm2d(1, eps=1e-05, momentum=0.01, affine=True, track_running_stats=True)
                )
              )
            )
            (7): eca(
              (avg_pool): AdaptiveAvgPool2d(output_size=1)
              (conv): Conv1d(1, 1, kernel_size=(3,), stride=(1,), padding=(1,), bias=False)
              (sigmoid): Sigmoid()
            )
          )
          (attention): AttentionModule(
            (avg_pool): AdaptiveAvgPool2d(output_size=1)
            (fc): Sequential(
              (0): Linear(in_features=128, out_features=16, bias=False)
              (1): ReLU(inplace=True)
              (2): Linear(in_features=16, out_features=128, bias=False)
              (3): Sigmoid()
            )
          )
        )
        (11): MixedOp(
          (_ops): ModuleList(
            (0): SepConv(
              (op): Sequential(
                (0): ReLU()
                (1): Conv2d(16, 16, kernel_size=(3, 3), stride=(1, 1), padding=(1, 1), groups=16, bias=False)
                (2): Conv2d(16, 16, kernel_size=(1, 1), stride=(1, 1), bias=False)
                (3): BatchNorm2d(16, eps=1e-05, momentum=0.1, affine=False, track_running_stats=True)
                (4): ReLU()
                (5): Conv2d(16, 16, kernel_size=(3, 3), stride=(1, 1), padding=(1, 1), groups=16, bias=False)
                (6): Conv2d(16, 16, kernel_size=(1, 1), stride=(1, 1), bias=False)
                (7): BatchNorm2d(16, eps=1e-05, momentum=0.1, affine=False, track_running_stats=True)
              )
            )
            (1): DilConv(
              (op): Sequential(
                (0): ReLU()
                (1): Conv2d(16, 16, kernel_size=(3, 3), stride=(1, 1), padding=(2, 2), dilation=(2, 2), groups=16, bias=False)
                (2): Conv2d(16, 16, kernel_size=(1, 1), stride=(1, 1), bias=False)
                (3): BatchNorm2d(16, eps=1e-05, momentum=0.1, affine=False, track_running_stats=True)
              )
            )
            (2): Identity()
            (3): Sequential(
              (0): AvgPool2d(kernel_size=3, stride=1, padding=1)
              (1): BatchNorm2d(16, eps=1e-05, momentum=0.1, affine=False, track_running_stats=True)
            )
            (4): Sequential(
              (0): MaxPool2d(kernel_size=3, stride=1, padding=1, dilation=1, ceil_mode=False)
              (1): BatchNorm2d(16, eps=1e-05, momentum=0.1, affine=False, track_running_stats=True)
            )
            (5): Zero()
            (6): CBAM(
              (ChannelGate): ChannelGate(
                (mlp): Sequential(
                  (0): Flatten()
                  (1): Linear(in_features=16, out_features=1, bias=True)
                  (2): ReLU()
                  (3): Linear(in_features=1, out_features=16, bias=True)
                )
              )
              (SpatialGate): SpatialGate(
                (compress): ChannelPool()
                (spatial): BasicConv(
                  (conv): Conv2d(2, 1, kernel_size=(7, 7), stride=(1, 1), padding=(3, 3), bias=False)
                  (bn): BatchNorm2d(1, eps=1e-05, momentum=0.01, affine=True, track_running_stats=True)
                )
              )
            )
            (7): eca(
              (avg_pool): AdaptiveAvgPool2d(output_size=1)
              (conv): Conv1d(1, 1, kernel_size=(3,), stride=(1,), padding=(1,), bias=False)
              (sigmoid): Sigmoid()
            )
          )
          (attention): AttentionModule(
            (avg_pool): AdaptiveAvgPool2d(output_size=1)
            (fc): Sequential(
              (0): Linear(in_features=128, out_features=16, bias=False)
              (1): ReLU(inplace=True)
              (2): Linear(in_features=16, out_features=128, bias=False)
              (3): Sigmoid()
            )
          )
        )
        (12): MixedOp(
          (_ops): ModuleList(
            (0): SepConv(
              (op): Sequential(
                (0): ReLU()
                (1): Conv2d(16, 16, kernel_size=(3, 3), stride=(1, 1), padding=(1, 1), groups=16, bias=False)
                (2): Conv2d(16, 16, kernel_size=(1, 1), stride=(1, 1), bias=False)
                (3): BatchNorm2d(16, eps=1e-05, momentum=0.1, affine=False, track_running_stats=True)
                (4): ReLU()
                (5): Conv2d(16, 16, kernel_size=(3, 3), stride=(1, 1), padding=(1, 1), groups=16, bias=False)
                (6): Conv2d(16, 16, kernel_size=(1, 1), stride=(1, 1), bias=False)
                (7): BatchNorm2d(16, eps=1e-05, momentum=0.1, affine=False, track_running_stats=True)
              )
            )
            (1): DilConv(
              (op): Sequential(
                (0): ReLU()
                (1): Conv2d(16, 16, kernel_size=(3, 3), stride=(1, 1), padding=(2, 2), dilation=(2, 2), groups=16, bias=False)
                (2): Conv2d(16, 16, kernel_size=(1, 1), stride=(1, 1), bias=False)
                (3): BatchNorm2d(16, eps=1e-05, momentum=0.1, affine=False, track_running_stats=True)
              )
            )
            (2): Identity()
            (3): Sequential(
              (0): AvgPool2d(kernel_size=3, stride=1, padding=1)
              (1): BatchNorm2d(16, eps=1e-05, momentum=0.1, affine=False, track_running_stats=True)
            )
            (4): Sequential(
              (0): MaxPool2d(kernel_size=3, stride=1, padding=1, dilation=1, ceil_mode=False)
              (1): BatchNorm2d(16, eps=1e-05, momentum=0.1, affine=False, track_running_stats=True)
            )
            (5): Zero()
            (6): CBAM(
              (ChannelGate): ChannelGate(
                (mlp): Sequential(
                  (0): Flatten()
                  (1): Linear(in_features=16, out_features=1, bias=True)
                  (2): ReLU()
                  (3): Linear(in_features=1, out_features=16, bias=True)
                )
              )
              (SpatialGate): SpatialGate(
                (compress): ChannelPool()
                (spatial): BasicConv(
                  (conv): Conv2d(2, 1, kernel_size=(7, 7), stride=(1, 1), padding=(3, 3), bias=False)
                  (bn): BatchNorm2d(1, eps=1e-05, momentum=0.01, affine=True, track_running_stats=True)
                )
              )
            )
            (7): eca(
              (avg_pool): AdaptiveAvgPool2d(output_size=1)
              (conv): Conv1d(1, 1, kernel_size=(3,), stride=(1,), padding=(1,), bias=False)
              (sigmoid): Sigmoid()
            )
          )
          (attention): AttentionModule(
            (avg_pool): AdaptiveAvgPool2d(output_size=1)
            (fc): Sequential(
              (0): Linear(in_features=128, out_features=16, bias=False)
              (1): ReLU(inplace=True)
              (2): Linear(in_features=16, out_features=128, bias=False)
              (3): Sigmoid()
            )
          )
        )
        (13): MixedOp(
          (_ops): ModuleList(
            (0): SepConv(
              (op): Sequential(
                (0): ReLU()
                (1): Conv2d(16, 16, kernel_size=(3, 3), stride=(1, 1), padding=(1, 1), groups=16, bias=False)
                (2): Conv2d(16, 16, kernel_size=(1, 1), stride=(1, 1), bias=False)
                (3): BatchNorm2d(16, eps=1e-05, momentum=0.1, affine=False, track_running_stats=True)
                (4): ReLU()
                (5): Conv2d(16, 16, kernel_size=(3, 3), stride=(1, 1), padding=(1, 1), groups=16, bias=False)
                (6): Conv2d(16, 16, kernel_size=(1, 1), stride=(1, 1), bias=False)
                (7): BatchNorm2d(16, eps=1e-05, momentum=0.1, affine=False, track_running_stats=True)
              )
            )
            (1): DilConv(
              (op): Sequential(
                (0): ReLU()
                (1): Conv2d(16, 16, kernel_size=(3, 3), stride=(1, 1), padding=(2, 2), dilation=(2, 2), groups=16, bias=False)
                (2): Conv2d(16, 16, kernel_size=(1, 1), stride=(1, 1), bias=False)
                (3): BatchNorm2d(16, eps=1e-05, momentum=0.1, affine=False, track_running_stats=True)
              )
            )
            (2): Identity()
            (3): Sequential(
              (0): AvgPool2d(kernel_size=3, stride=1, padding=1)
              (1): BatchNorm2d(16, eps=1e-05, momentum=0.1, affine=False, track_running_stats=True)
            )
            (4): Sequential(
              (0): MaxPool2d(kernel_size=3, stride=1, padding=1, dilation=1, ceil_mode=False)
              (1): BatchNorm2d(16, eps=1e-05, momentum=0.1, affine=False, track_running_stats=True)
            )
            (5): Zero()
            (6): CBAM(
              (ChannelGate): ChannelGate(
                (mlp): Sequential(
                  (0): Flatten()
                  (1): Linear(in_features=16, out_features=1, bias=True)
                  (2): ReLU()
                  (3): Linear(in_features=1, out_features=16, bias=True)
                )
              )
              (SpatialGate): SpatialGate(
                (compress): ChannelPool()
                (spatial): BasicConv(
                  (conv): Conv2d(2, 1, kernel_size=(7, 7), stride=(1, 1), padding=(3, 3), bias=False)
                  (bn): BatchNorm2d(1, eps=1e-05, momentum=0.01, affine=True, track_running_stats=True)
                )
              )
            )
            (7): eca(
              (avg_pool): AdaptiveAvgPool2d(output_size=1)
              (conv): Conv1d(1, 1, kernel_size=(3,), stride=(1,), padding=(1,), bias=False)
              (sigmoid): Sigmoid()
            )
          )
          (attention): AttentionModule(
            (avg_pool): AdaptiveAvgPool2d(output_size=1)
            (fc): Sequential(
              (0): Linear(in_features=128, out_features=16, bias=False)
              (1): ReLU(inplace=True)
              (2): Linear(in_features=16, out_features=128, bias=False)
              (3): Sigmoid()
            )
          )
        )
      )
      (_bns): ModuleList()
    )
    (2): Cell(
      (preprocess0): ReLUConvBN(
        (op): Sequential(
          (0): ReLU()
          (1): Conv2d(64, 32, kernel_size=(1, 1), stride=(1, 1), bias=False)
          (2): BatchNorm2d(32, eps=1e-05, momentum=0.1, affine=False, track_running_stats=True)
        )
      )
      (preprocess1): ReLUConvBN(
        (op): Sequential(
          (0): ReLU()
          (1): Conv2d(64, 32, kernel_size=(1, 1), stride=(1, 1), bias=False)
          (2): BatchNorm2d(32, eps=1e-05, momentum=0.1, affine=False, track_running_stats=True)
        )
      )
      (_ops): ModuleList(
        (0): MixedOp(
          (_ops): ModuleList(
            (0): SepConv(
              (op): Sequential(
                (0): ReLU()
                (1): Conv2d(32, 32, kernel_size=(3, 3), stride=(2, 2), padding=(1, 1), groups=32, bias=False)
                (2): Conv2d(32, 32, kernel_size=(1, 1), stride=(1, 1), bias=False)
                (3): BatchNorm2d(32, eps=1e-05, momentum=0.1, affine=False, track_running_stats=True)
                (4): ReLU()
                (5): Conv2d(32, 32, kernel_size=(3, 3), stride=(1, 1), padding=(1, 1), groups=32, bias=False)
                (6): Conv2d(32, 32, kernel_size=(1, 1), stride=(1, 1), bias=False)
                (7): BatchNorm2d(32, eps=1e-05, momentum=0.1, affine=False, track_running_stats=True)
              )
            )
            (1): DilConv(
              (op): Sequential(
                (0): ReLU()
                (1): Conv2d(32, 32, kernel_size=(3, 3), stride=(2, 2), padding=(2, 2), dilation=(2, 2), groups=32, bias=False)
                (2): Conv2d(32, 32, kernel_size=(1, 1), stride=(1, 1), bias=False)
                (3): BatchNorm2d(32, eps=1e-05, momentum=0.1, affine=False, track_running_stats=True)
              )
            )
            (2): FactorizedReduce(
              (relu): ReLU()
              (conv_1): Conv2d(32, 16, kernel_size=(1, 1), stride=(2, 2), bias=False)
              (conv_2): Conv2d(32, 16, kernel_size=(1, 1), stride=(2, 2), bias=False)
              (bn): BatchNorm2d(32, eps=1e-05, momentum=0.1, affine=False, track_running_stats=True)
            )
            (3): Sequential(
              (0): AvgPool2d(kernel_size=3, stride=2, padding=1)
              (1): BatchNorm2d(32, eps=1e-05, momentum=0.1, affine=False, track_running_stats=True)
            )
            (4): Sequential(
              (0): MaxPool2d(kernel_size=3, stride=2, padding=1, dilation=1, ceil_mode=False)
              (1): BatchNorm2d(32, eps=1e-05, momentum=0.1, affine=False, track_running_stats=True)
            )
            (5): Zero()
            (6): CBAM(
              (ChannelGate): ChannelGate(
                (mlp): Sequential(
                  (0): Flatten()
                  (1): Linear(in_features=32, out_features=2, bias=True)
                  (2): ReLU()
                  (3): Linear(in_features=2, out_features=32, bias=True)
                )
              )
              (SpatialGate): SpatialGate(
                (compress): ChannelPool()
                (spatial): BasicConv(
                  (conv): Conv2d(2, 1, kernel_size=(7, 7), stride=(1, 1), padding=(3, 3), bias=False)
                  (bn): BatchNorm2d(1, eps=1e-05, momentum=0.01, affine=True, track_running_stats=True)
                )
              )
              (avg): AvgPool2d(kernel_size=3, stride=2, padding=1)
            )
            (7): eca(
              (avg_pool): AdaptiveAvgPool2d(output_size=1)
              (conv): Conv1d(1, 1, kernel_size=(3,), stride=(1,), padding=(1,), bias=False)
              (sigmoid): Sigmoid()
              (avg): AvgPool2d(kernel_size=3, stride=2, padding=1)
            )
          )
          (attention): AttentionModule(
            (avg_pool): AdaptiveAvgPool2d(output_size=1)
            (fc): Sequential(
              (0): Linear(in_features=256, out_features=32, bias=False)
              (1): ReLU(inplace=True)
              (2): Linear(in_features=32, out_features=256, bias=False)
              (3): Sigmoid()
            )
          )
        )
        (1): MixedOp(
          (_ops): ModuleList(
            (0): SepConv(
              (op): Sequential(
                (0): ReLU()
                (1): Conv2d(32, 32, kernel_size=(3, 3), stride=(2, 2), padding=(1, 1), groups=32, bias=False)
                (2): Conv2d(32, 32, kernel_size=(1, 1), stride=(1, 1), bias=False)
                (3): BatchNorm2d(32, eps=1e-05, momentum=0.1, affine=False, track_running_stats=True)
                (4): ReLU()
                (5): Conv2d(32, 32, kernel_size=(3, 3), stride=(1, 1), padding=(1, 1), groups=32, bias=False)
                (6): Conv2d(32, 32, kernel_size=(1, 1), stride=(1, 1), bias=False)
                (7): BatchNorm2d(32, eps=1e-05, momentum=0.1, affine=False, track_running_stats=True)
              )
            )
            (1): DilConv(
              (op): Sequential(
                (0): ReLU()
                (1): Conv2d(32, 32, kernel_size=(3, 3), stride=(2, 2), padding=(2, 2), dilation=(2, 2), groups=32, bias=False)
                (2): Conv2d(32, 32, kernel_size=(1, 1), stride=(1, 1), bias=False)
                (3): BatchNorm2d(32, eps=1e-05, momentum=0.1, affine=False, track_running_stats=True)
              )
            )
            (2): FactorizedReduce(
              (relu): ReLU()
              (conv_1): Conv2d(32, 16, kernel_size=(1, 1), stride=(2, 2), bias=False)
              (conv_2): Conv2d(32, 16, kernel_size=(1, 1), stride=(2, 2), bias=False)
              (bn): BatchNorm2d(32, eps=1e-05, momentum=0.1, affine=False, track_running_stats=True)
            )
            (3): Sequential(
              (0): AvgPool2d(kernel_size=3, stride=2, padding=1)
              (1): BatchNorm2d(32, eps=1e-05, momentum=0.1, affine=False, track_running_stats=True)
            )
            (4): Sequential(
              (0): MaxPool2d(kernel_size=3, stride=2, padding=1, dilation=1, ceil_mode=False)
              (1): BatchNorm2d(32, eps=1e-05, momentum=0.1, affine=False, track_running_stats=True)
            )
            (5): Zero()
            (6): CBAM(
              (ChannelGate): ChannelGate(
                (mlp): Sequential(
                  (0): Flatten()
                  (1): Linear(in_features=32, out_features=2, bias=True)
                  (2): ReLU()
                  (3): Linear(in_features=2, out_features=32, bias=True)
                )
              )
              (SpatialGate): SpatialGate(
                (compress): ChannelPool()
                (spatial): BasicConv(
                  (conv): Conv2d(2, 1, kernel_size=(7, 7), stride=(1, 1), padding=(3, 3), bias=False)
                  (bn): BatchNorm2d(1, eps=1e-05, momentum=0.01, affine=True, track_running_stats=True)
                )
              )
              (avg): AvgPool2d(kernel_size=3, stride=2, padding=1)
            )
            (7): eca(
              (avg_pool): AdaptiveAvgPool2d(output_size=1)
              (conv): Conv1d(1, 1, kernel_size=(3,), stride=(1,), padding=(1,), bias=False)
              (sigmoid): Sigmoid()
              (avg): AvgPool2d(kernel_size=3, stride=2, padding=1)
            )
          )
          (attention): AttentionModule(
            (avg_pool): AdaptiveAvgPool2d(output_size=1)
            (fc): Sequential(
              (0): Linear(in_features=256, out_features=32, bias=False)
              (1): ReLU(inplace=True)
              (2): Linear(in_features=32, out_features=256, bias=False)
              (3): Sigmoid()
            )
          )
        )
        (2): MixedOp(
          (_ops): ModuleList(
            (0): SepConv(
              (op): Sequential(
                (0): ReLU()
                (1): Conv2d(32, 32, kernel_size=(3, 3), stride=(2, 2), padding=(1, 1), groups=32, bias=False)
                (2): Conv2d(32, 32, kernel_size=(1, 1), stride=(1, 1), bias=False)
                (3): BatchNorm2d(32, eps=1e-05, momentum=0.1, affine=False, track_running_stats=True)
                (4): ReLU()
                (5): Conv2d(32, 32, kernel_size=(3, 3), stride=(1, 1), padding=(1, 1), groups=32, bias=False)
                (6): Conv2d(32, 32, kernel_size=(1, 1), stride=(1, 1), bias=False)
                (7): BatchNorm2d(32, eps=1e-05, momentum=0.1, affine=False, track_running_stats=True)
              )
            )
            (1): DilConv(
              (op): Sequential(
                (0): ReLU()
                (1): Conv2d(32, 32, kernel_size=(3, 3), stride=(2, 2), padding=(2, 2), dilation=(2, 2), groups=32, bias=False)
                (2): Conv2d(32, 32, kernel_size=(1, 1), stride=(1, 1), bias=False)
                (3): BatchNorm2d(32, eps=1e-05, momentum=0.1, affine=False, track_running_stats=True)
              )
            )
            (2): FactorizedReduce(
              (relu): ReLU()
              (conv_1): Conv2d(32, 16, kernel_size=(1, 1), stride=(2, 2), bias=False)
              (conv_2): Conv2d(32, 16, kernel_size=(1, 1), stride=(2, 2), bias=False)
              (bn): BatchNorm2d(32, eps=1e-05, momentum=0.1, affine=False, track_running_stats=True)
            )
            (3): Sequential(
              (0): AvgPool2d(kernel_size=3, stride=2, padding=1)
              (1): BatchNorm2d(32, eps=1e-05, momentum=0.1, affine=False, track_running_stats=True)
            )
            (4): Sequential(
              (0): MaxPool2d(kernel_size=3, stride=2, padding=1, dilation=1, ceil_mode=False)
              (1): BatchNorm2d(32, eps=1e-05, momentum=0.1, affine=False, track_running_stats=True)
            )
            (5): Zero()
            (6): CBAM(
              (ChannelGate): ChannelGate(
                (mlp): Sequential(
                  (0): Flatten()
                  (1): Linear(in_features=32, out_features=2, bias=True)
                  (2): ReLU()
                  (3): Linear(in_features=2, out_features=32, bias=True)
                )
              )
              (SpatialGate): SpatialGate(
                (compress): ChannelPool()
                (spatial): BasicConv(
                  (conv): Conv2d(2, 1, kernel_size=(7, 7), stride=(1, 1), padding=(3, 3), bias=False)
                  (bn): BatchNorm2d(1, eps=1e-05, momentum=0.01, affine=True, track_running_stats=True)
                )
              )
              (avg): AvgPool2d(kernel_size=3, stride=2, padding=1)
            )
            (7): eca(
              (avg_pool): AdaptiveAvgPool2d(output_size=1)
              (conv): Conv1d(1, 1, kernel_size=(3,), stride=(1,), padding=(1,), bias=False)
              (sigmoid): Sigmoid()
              (avg): AvgPool2d(kernel_size=3, stride=2, padding=1)
            )
          )
          (attention): AttentionModule(
            (avg_pool): AdaptiveAvgPool2d(output_size=1)
            (fc): Sequential(
              (0): Linear(in_features=256, out_features=32, bias=False)
              (1): ReLU(inplace=True)
              (2): Linear(in_features=32, out_features=256, bias=False)
              (3): Sigmoid()
            )
          )
        )
        (3): MixedOp(
          (_ops): ModuleList(
            (0): SepConv(
              (op): Sequential(
                (0): ReLU()
                (1): Conv2d(32, 32, kernel_size=(3, 3), stride=(2, 2), padding=(1, 1), groups=32, bias=False)
                (2): Conv2d(32, 32, kernel_size=(1, 1), stride=(1, 1), bias=False)
                (3): BatchNorm2d(32, eps=1e-05, momentum=0.1, affine=False, track_running_stats=True)
                (4): ReLU()
                (5): Conv2d(32, 32, kernel_size=(3, 3), stride=(1, 1), padding=(1, 1), groups=32, bias=False)
                (6): Conv2d(32, 32, kernel_size=(1, 1), stride=(1, 1), bias=False)
                (7): BatchNorm2d(32, eps=1e-05, momentum=0.1, affine=False, track_running_stats=True)
              )
            )
            (1): DilConv(
              (op): Sequential(
                (0): ReLU()
                (1): Conv2d(32, 32, kernel_size=(3, 3), stride=(2, 2), padding=(2, 2), dilation=(2, 2), groups=32, bias=False)
                (2): Conv2d(32, 32, kernel_size=(1, 1), stride=(1, 1), bias=False)
                (3): BatchNorm2d(32, eps=1e-05, momentum=0.1, affine=False, track_running_stats=True)
              )
            )
            (2): FactorizedReduce(
              (relu): ReLU()
              (conv_1): Conv2d(32, 16, kernel_size=(1, 1), stride=(2, 2), bias=False)
              (conv_2): Conv2d(32, 16, kernel_size=(1, 1), stride=(2, 2), bias=False)
              (bn): BatchNorm2d(32, eps=1e-05, momentum=0.1, affine=False, track_running_stats=True)
            )
            (3): Sequential(
              (0): AvgPool2d(kernel_size=3, stride=2, padding=1)
              (1): BatchNorm2d(32, eps=1e-05, momentum=0.1, affine=False, track_running_stats=True)
            )
            (4): Sequential(
              (0): MaxPool2d(kernel_size=3, stride=2, padding=1, dilation=1, ceil_mode=False)
              (1): BatchNorm2d(32, eps=1e-05, momentum=0.1, affine=False, track_running_stats=True)
            )
            (5): Zero()
            (6): CBAM(
              (ChannelGate): ChannelGate(
                (mlp): Sequential(
                  (0): Flatten()
                  (1): Linear(in_features=32, out_features=2, bias=True)
                  (2): ReLU()
                  (3): Linear(in_features=2, out_features=32, bias=True)
                )
              )
              (SpatialGate): SpatialGate(
                (compress): ChannelPool()
                (spatial): BasicConv(
                  (conv): Conv2d(2, 1, kernel_size=(7, 7), stride=(1, 1), padding=(3, 3), bias=False)
                  (bn): BatchNorm2d(1, eps=1e-05, momentum=0.01, affine=True, track_running_stats=True)
                )
              )
              (avg): AvgPool2d(kernel_size=3, stride=2, padding=1)
            )
            (7): eca(
              (avg_pool): AdaptiveAvgPool2d(output_size=1)
              (conv): Conv1d(1, 1, kernel_size=(3,), stride=(1,), padding=(1,), bias=False)
              (sigmoid): Sigmoid()
              (avg): AvgPool2d(kernel_size=3, stride=2, padding=1)
            )
          )
          (attention): AttentionModule(
            (avg_pool): AdaptiveAvgPool2d(output_size=1)
            (fc): Sequential(
              (0): Linear(in_features=256, out_features=32, bias=False)
              (1): ReLU(inplace=True)
              (2): Linear(in_features=32, out_features=256, bias=False)
              (3): Sigmoid()
            )
          )
        )
        (4): MixedOp(
          (_ops): ModuleList(
            (0): SepConv(
              (op): Sequential(
                (0): ReLU()
                (1): Conv2d(32, 32, kernel_size=(3, 3), stride=(1, 1), padding=(1, 1), groups=32, bias=False)
                (2): Conv2d(32, 32, kernel_size=(1, 1), stride=(1, 1), bias=False)
                (3): BatchNorm2d(32, eps=1e-05, momentum=0.1, affine=False, track_running_stats=True)
                (4): ReLU()
                (5): Conv2d(32, 32, kernel_size=(3, 3), stride=(1, 1), padding=(1, 1), groups=32, bias=False)
                (6): Conv2d(32, 32, kernel_size=(1, 1), stride=(1, 1), bias=False)
                (7): BatchNorm2d(32, eps=1e-05, momentum=0.1, affine=False, track_running_stats=True)
              )
            )
            (1): DilConv(
              (op): Sequential(
                (0): ReLU()
                (1): Conv2d(32, 32, kernel_size=(3, 3), stride=(1, 1), padding=(2, 2), dilation=(2, 2), groups=32, bias=False)
                (2): Conv2d(32, 32, kernel_size=(1, 1), stride=(1, 1), bias=False)
                (3): BatchNorm2d(32, eps=1e-05, momentum=0.1, affine=False, track_running_stats=True)
              )
            )
            (2): Identity()
            (3): Sequential(
              (0): AvgPool2d(kernel_size=3, stride=1, padding=1)
              (1): BatchNorm2d(32, eps=1e-05, momentum=0.1, affine=False, track_running_stats=True)
            )
            (4): Sequential(
              (0): MaxPool2d(kernel_size=3, stride=1, padding=1, dilation=1, ceil_mode=False)
              (1): BatchNorm2d(32, eps=1e-05, momentum=0.1, affine=False, track_running_stats=True)
            )
            (5): Zero()
            (6): CBAM(
              (ChannelGate): ChannelGate(
                (mlp): Sequential(
                  (0): Flatten()
                  (1): Linear(in_features=32, out_features=2, bias=True)
                  (2): ReLU()
                  (3): Linear(in_features=2, out_features=32, bias=True)
                )
              )
              (SpatialGate): SpatialGate(
                (compress): ChannelPool()
                (spatial): BasicConv(
                  (conv): Conv2d(2, 1, kernel_size=(7, 7), stride=(1, 1), padding=(3, 3), bias=False)
                  (bn): BatchNorm2d(1, eps=1e-05, momentum=0.01, affine=True, track_running_stats=True)
                )
              )
            )
            (7): eca(
              (avg_pool): AdaptiveAvgPool2d(output_size=1)
              (conv): Conv1d(1, 1, kernel_size=(3,), stride=(1,), padding=(1,), bias=False)
              (sigmoid): Sigmoid()
            )
          )
          (attention): AttentionModule(
            (avg_pool): AdaptiveAvgPool2d(output_size=1)
            (fc): Sequential(
              (0): Linear(in_features=256, out_features=32, bias=False)
              (1): ReLU(inplace=True)
              (2): Linear(in_features=32, out_features=256, bias=False)
              (3): Sigmoid()
            )
          )
        )
        (5): MixedOp(
          (_ops): ModuleList(
            (0): SepConv(
              (op): Sequential(
                (0): ReLU()
                (1): Conv2d(32, 32, kernel_size=(3, 3), stride=(2, 2), padding=(1, 1), groups=32, bias=False)
                (2): Conv2d(32, 32, kernel_size=(1, 1), stride=(1, 1), bias=False)
                (3): BatchNorm2d(32, eps=1e-05, momentum=0.1, affine=False, track_running_stats=True)
                (4): ReLU()
                (5): Conv2d(32, 32, kernel_size=(3, 3), stride=(1, 1), padding=(1, 1), groups=32, bias=False)
                (6): Conv2d(32, 32, kernel_size=(1, 1), stride=(1, 1), bias=False)
                (7): BatchNorm2d(32, eps=1e-05, momentum=0.1, affine=False, track_running_stats=True)
              )
            )
            (1): DilConv(
              (op): Sequential(
                (0): ReLU()
                (1): Conv2d(32, 32, kernel_size=(3, 3), stride=(2, 2), padding=(2, 2), dilation=(2, 2), groups=32, bias=False)
                (2): Conv2d(32, 32, kernel_size=(1, 1), stride=(1, 1), bias=False)
                (3): BatchNorm2d(32, eps=1e-05, momentum=0.1, affine=False, track_running_stats=True)
              )
            )
            (2): FactorizedReduce(
              (relu): ReLU()
              (conv_1): Conv2d(32, 16, kernel_size=(1, 1), stride=(2, 2), bias=False)
              (conv_2): Conv2d(32, 16, kernel_size=(1, 1), stride=(2, 2), bias=False)
              (bn): BatchNorm2d(32, eps=1e-05, momentum=0.1, affine=False, track_running_stats=True)
            )
            (3): Sequential(
              (0): AvgPool2d(kernel_size=3, stride=2, padding=1)
              (1): BatchNorm2d(32, eps=1e-05, momentum=0.1, affine=False, track_running_stats=True)
            )
            (4): Sequential(
              (0): MaxPool2d(kernel_size=3, stride=2, padding=1, dilation=1, ceil_mode=False)
              (1): BatchNorm2d(32, eps=1e-05, momentum=0.1, affine=False, track_running_stats=True)
            )
            (5): Zero()
            (6): CBAM(
              (ChannelGate): ChannelGate(
                (mlp): Sequential(
                  (0): Flatten()
                  (1): Linear(in_features=32, out_features=2, bias=True)
                  (2): ReLU()
                  (3): Linear(in_features=2, out_features=32, bias=True)
                )
              )
              (SpatialGate): SpatialGate(
                (compress): ChannelPool()
                (spatial): BasicConv(
                  (conv): Conv2d(2, 1, kernel_size=(7, 7), stride=(1, 1), padding=(3, 3), bias=False)
                  (bn): BatchNorm2d(1, eps=1e-05, momentum=0.01, affine=True, track_running_stats=True)
                )
              )
              (avg): AvgPool2d(kernel_size=3, stride=2, padding=1)
            )
            (7): eca(
              (avg_pool): AdaptiveAvgPool2d(output_size=1)
              (conv): Conv1d(1, 1, kernel_size=(3,), stride=(1,), padding=(1,), bias=False)
              (sigmoid): Sigmoid()
              (avg): AvgPool2d(kernel_size=3, stride=2, padding=1)
            )
          )
          (attention): AttentionModule(
            (avg_pool): AdaptiveAvgPool2d(output_size=1)
            (fc): Sequential(
              (0): Linear(in_features=256, out_features=32, bias=False)
              (1): ReLU(inplace=True)
              (2): Linear(in_features=32, out_features=256, bias=False)
              (3): Sigmoid()
            )
          )
        )
        (6): MixedOp(
          (_ops): ModuleList(
            (0): SepConv(
              (op): Sequential(
                (0): ReLU()
                (1): Conv2d(32, 32, kernel_size=(3, 3), stride=(2, 2), padding=(1, 1), groups=32, bias=False)
                (2): Conv2d(32, 32, kernel_size=(1, 1), stride=(1, 1), bias=False)
                (3): BatchNorm2d(32, eps=1e-05, momentum=0.1, affine=False, track_running_stats=True)
                (4): ReLU()
                (5): Conv2d(32, 32, kernel_size=(3, 3), stride=(1, 1), padding=(1, 1), groups=32, bias=False)
                (6): Conv2d(32, 32, kernel_size=(1, 1), stride=(1, 1), bias=False)
                (7): BatchNorm2d(32, eps=1e-05, momentum=0.1, affine=False, track_running_stats=True)
              )
            )
            (1): DilConv(
              (op): Sequential(
                (0): ReLU()
                (1): Conv2d(32, 32, kernel_size=(3, 3), stride=(2, 2), padding=(2, 2), dilation=(2, 2), groups=32, bias=False)
                (2): Conv2d(32, 32, kernel_size=(1, 1), stride=(1, 1), bias=False)
                (3): BatchNorm2d(32, eps=1e-05, momentum=0.1, affine=False, track_running_stats=True)
              )
            )
            (2): FactorizedReduce(
              (relu): ReLU()
              (conv_1): Conv2d(32, 16, kernel_size=(1, 1), stride=(2, 2), bias=False)
              (conv_2): Conv2d(32, 16, kernel_size=(1, 1), stride=(2, 2), bias=False)
              (bn): BatchNorm2d(32, eps=1e-05, momentum=0.1, affine=False, track_running_stats=True)
            )
            (3): Sequential(
              (0): AvgPool2d(kernel_size=3, stride=2, padding=1)
              (1): BatchNorm2d(32, eps=1e-05, momentum=0.1, affine=False, track_running_stats=True)
            )
            (4): Sequential(
              (0): MaxPool2d(kernel_size=3, stride=2, padding=1, dilation=1, ceil_mode=False)
              (1): BatchNorm2d(32, eps=1e-05, momentum=0.1, affine=False, track_running_stats=True)
            )
            (5): Zero()
            (6): CBAM(
              (ChannelGate): ChannelGate(
                (mlp): Sequential(
                  (0): Flatten()
                  (1): Linear(in_features=32, out_features=2, bias=True)
                  (2): ReLU()
                  (3): Linear(in_features=2, out_features=32, bias=True)
                )
              )
              (SpatialGate): SpatialGate(
                (compress): ChannelPool()
                (spatial): BasicConv(
                  (conv): Conv2d(2, 1, kernel_size=(7, 7), stride=(1, 1), padding=(3, 3), bias=False)
                  (bn): BatchNorm2d(1, eps=1e-05, momentum=0.01, affine=True, track_running_stats=True)
                )
              )
              (avg): AvgPool2d(kernel_size=3, stride=2, padding=1)
            )
            (7): eca(
              (avg_pool): AdaptiveAvgPool2d(output_size=1)
              (conv): Conv1d(1, 1, kernel_size=(3,), stride=(1,), padding=(1,), bias=False)
              (sigmoid): Sigmoid()
              (avg): AvgPool2d(kernel_size=3, stride=2, padding=1)
            )
          )
          (attention): AttentionModule(
            (avg_pool): AdaptiveAvgPool2d(output_size=1)
            (fc): Sequential(
              (0): Linear(in_features=256, out_features=32, bias=False)
              (1): ReLU(inplace=True)
              (2): Linear(in_features=32, out_features=256, bias=False)
              (3): Sigmoid()
            )
          )
        )
        (7): MixedOp(
          (_ops): ModuleList(
            (0): SepConv(
              (op): Sequential(
                (0): ReLU()
                (1): Conv2d(32, 32, kernel_size=(3, 3), stride=(1, 1), padding=(1, 1), groups=32, bias=False)
                (2): Conv2d(32, 32, kernel_size=(1, 1), stride=(1, 1), bias=False)
                (3): BatchNorm2d(32, eps=1e-05, momentum=0.1, affine=False, track_running_stats=True)
                (4): ReLU()
                (5): Conv2d(32, 32, kernel_size=(3, 3), stride=(1, 1), padding=(1, 1), groups=32, bias=False)
                (6): Conv2d(32, 32, kernel_size=(1, 1), stride=(1, 1), bias=False)
                (7): BatchNorm2d(32, eps=1e-05, momentum=0.1, affine=False, track_running_stats=True)
              )
            )
            (1): DilConv(
              (op): Sequential(
                (0): ReLU()
                (1): Conv2d(32, 32, kernel_size=(3, 3), stride=(1, 1), padding=(2, 2), dilation=(2, 2), groups=32, bias=False)
                (2): Conv2d(32, 32, kernel_size=(1, 1), stride=(1, 1), bias=False)
                (3): BatchNorm2d(32, eps=1e-05, momentum=0.1, affine=False, track_running_stats=True)
              )
            )
            (2): Identity()
            (3): Sequential(
              (0): AvgPool2d(kernel_size=3, stride=1, padding=1)
              (1): BatchNorm2d(32, eps=1e-05, momentum=0.1, affine=False, track_running_stats=True)
            )
            (4): Sequential(
              (0): MaxPool2d(kernel_size=3, stride=1, padding=1, dilation=1, ceil_mode=False)
              (1): BatchNorm2d(32, eps=1e-05, momentum=0.1, affine=False, track_running_stats=True)
            )
            (5): Zero()
            (6): CBAM(
              (ChannelGate): ChannelGate(
                (mlp): Sequential(
                  (0): Flatten()
                  (1): Linear(in_features=32, out_features=2, bias=True)
                  (2): ReLU()
                  (3): Linear(in_features=2, out_features=32, bias=True)
                )
              )
              (SpatialGate): SpatialGate(
                (compress): ChannelPool()
                (spatial): BasicConv(
                  (conv): Conv2d(2, 1, kernel_size=(7, 7), stride=(1, 1), padding=(3, 3), bias=False)
                  (bn): BatchNorm2d(1, eps=1e-05, momentum=0.01, affine=True, track_running_stats=True)
                )
              )
            )
            (7): eca(
              (avg_pool): AdaptiveAvgPool2d(output_size=1)
              (conv): Conv1d(1, 1, kernel_size=(3,), stride=(1,), padding=(1,), bias=False)
              (sigmoid): Sigmoid()
            )
          )
          (attention): AttentionModule(
            (avg_pool): AdaptiveAvgPool2d(output_size=1)
            (fc): Sequential(
              (0): Linear(in_features=256, out_features=32, bias=False)
              (1): ReLU(inplace=True)
              (2): Linear(in_features=32, out_features=256, bias=False)
              (3): Sigmoid()
            )
          )
        )
        (8): MixedOp(
          (_ops): ModuleList(
            (0): SepConv(
              (op): Sequential(
                (0): ReLU()
                (1): Conv2d(32, 32, kernel_size=(3, 3), stride=(1, 1), padding=(1, 1), groups=32, bias=False)
                (2): Conv2d(32, 32, kernel_size=(1, 1), stride=(1, 1), bias=False)
                (3): BatchNorm2d(32, eps=1e-05, momentum=0.1, affine=False, track_running_stats=True)
                (4): ReLU()
                (5): Conv2d(32, 32, kernel_size=(3, 3), stride=(1, 1), padding=(1, 1), groups=32, bias=False)
                (6): Conv2d(32, 32, kernel_size=(1, 1), stride=(1, 1), bias=False)
                (7): BatchNorm2d(32, eps=1e-05, momentum=0.1, affine=False, track_running_stats=True)
              )
            )
            (1): DilConv(
              (op): Sequential(
                (0): ReLU()
                (1): Conv2d(32, 32, kernel_size=(3, 3), stride=(1, 1), padding=(2, 2), dilation=(2, 2), groups=32, bias=False)
                (2): Conv2d(32, 32, kernel_size=(1, 1), stride=(1, 1), bias=False)
                (3): BatchNorm2d(32, eps=1e-05, momentum=0.1, affine=False, track_running_stats=True)
              )
            )
            (2): Identity()
            (3): Sequential(
              (0): AvgPool2d(kernel_size=3, stride=1, padding=1)
              (1): BatchNorm2d(32, eps=1e-05, momentum=0.1, affine=False, track_running_stats=True)
            )
            (4): Sequential(
              (0): MaxPool2d(kernel_size=3, stride=1, padding=1, dilation=1, ceil_mode=False)
              (1): BatchNorm2d(32, eps=1e-05, momentum=0.1, affine=False, track_running_stats=True)
            )
            (5): Zero()
            (6): CBAM(
              (ChannelGate): ChannelGate(
                (mlp): Sequential(
                  (0): Flatten()
                  (1): Linear(in_features=32, out_features=2, bias=True)
                  (2): ReLU()
                  (3): Linear(in_features=2, out_features=32, bias=True)
                )
              )
              (SpatialGate): SpatialGate(
                (compress): ChannelPool()
                (spatial): BasicConv(
                  (conv): Conv2d(2, 1, kernel_size=(7, 7), stride=(1, 1), padding=(3, 3), bias=False)
                  (bn): BatchNorm2d(1, eps=1e-05, momentum=0.01, affine=True, track_running_stats=True)
                )
              )
            )
            (7): eca(
              (avg_pool): AdaptiveAvgPool2d(output_size=1)
              (conv): Conv1d(1, 1, kernel_size=(3,), stride=(1,), padding=(1,), bias=False)
              (sigmoid): Sigmoid()
            )
          )
          (attention): AttentionModule(
            (avg_pool): AdaptiveAvgPool2d(output_size=1)
            (fc): Sequential(
              (0): Linear(in_features=256, out_features=32, bias=False)
              (1): ReLU(inplace=True)
              (2): Linear(in_features=32, out_features=256, bias=False)
              (3): Sigmoid()
            )
          )
        )
        (9): MixedOp(
          (_ops): ModuleList(
            (0): SepConv(
              (op): Sequential(
                (0): ReLU()
                (1): Conv2d(32, 32, kernel_size=(3, 3), stride=(2, 2), padding=(1, 1), groups=32, bias=False)
                (2): Conv2d(32, 32, kernel_size=(1, 1), stride=(1, 1), bias=False)
                (3): BatchNorm2d(32, eps=1e-05, momentum=0.1, affine=False, track_running_stats=True)
                (4): ReLU()
                (5): Conv2d(32, 32, kernel_size=(3, 3), stride=(1, 1), padding=(1, 1), groups=32, bias=False)
                (6): Conv2d(32, 32, kernel_size=(1, 1), stride=(1, 1), bias=False)
                (7): BatchNorm2d(32, eps=1e-05, momentum=0.1, affine=False, track_running_stats=True)
              )
            )
            (1): DilConv(
              (op): Sequential(
                (0): ReLU()
                (1): Conv2d(32, 32, kernel_size=(3, 3), stride=(2, 2), padding=(2, 2), dilation=(2, 2), groups=32, bias=False)
                (2): Conv2d(32, 32, kernel_size=(1, 1), stride=(1, 1), bias=False)
                (3): BatchNorm2d(32, eps=1e-05, momentum=0.1, affine=False, track_running_stats=True)
              )
            )
            (2): FactorizedReduce(
              (relu): ReLU()
              (conv_1): Conv2d(32, 16, kernel_size=(1, 1), stride=(2, 2), bias=False)
              (conv_2): Conv2d(32, 16, kernel_size=(1, 1), stride=(2, 2), bias=False)
              (bn): BatchNorm2d(32, eps=1e-05, momentum=0.1, affine=False, track_running_stats=True)
            )
            (3): Sequential(
              (0): AvgPool2d(kernel_size=3, stride=2, padding=1)
              (1): BatchNorm2d(32, eps=1e-05, momentum=0.1, affine=False, track_running_stats=True)
            )
            (4): Sequential(
              (0): MaxPool2d(kernel_size=3, stride=2, padding=1, dilation=1, ceil_mode=False)
              (1): BatchNorm2d(32, eps=1e-05, momentum=0.1, affine=False, track_running_stats=True)
            )
            (5): Zero()
            (6): CBAM(
              (ChannelGate): ChannelGate(
                (mlp): Sequential(
                  (0): Flatten()
                  (1): Linear(in_features=32, out_features=2, bias=True)
                  (2): ReLU()
                  (3): Linear(in_features=2, out_features=32, bias=True)
                )
              )
              (SpatialGate): SpatialGate(
                (compress): ChannelPool()
                (spatial): BasicConv(
                  (conv): Conv2d(2, 1, kernel_size=(7, 7), stride=(1, 1), padding=(3, 3), bias=False)
                  (bn): BatchNorm2d(1, eps=1e-05, momentum=0.01, affine=True, track_running_stats=True)
                )
              )
              (avg): AvgPool2d(kernel_size=3, stride=2, padding=1)
            )
            (7): eca(
              (avg_pool): AdaptiveAvgPool2d(output_size=1)
              (conv): Conv1d(1, 1, kernel_size=(3,), stride=(1,), padding=(1,), bias=False)
              (sigmoid): Sigmoid()
              (avg): AvgPool2d(kernel_size=3, stride=2, padding=1)
            )
          )
          (attention): AttentionModule(
            (avg_pool): AdaptiveAvgPool2d(output_size=1)
            (fc): Sequential(
              (0): Linear(in_features=256, out_features=32, bias=False)
              (1): ReLU(inplace=True)
              (2): Linear(in_features=32, out_features=256, bias=False)
              (3): Sigmoid()
            )
          )
        )
        (10): MixedOp(
          (_ops): ModuleList(
            (0): SepConv(
              (op): Sequential(
                (0): ReLU()
                (1): Conv2d(32, 32, kernel_size=(3, 3), stride=(2, 2), padding=(1, 1), groups=32, bias=False)
                (2): Conv2d(32, 32, kernel_size=(1, 1), stride=(1, 1), bias=False)
                (3): BatchNorm2d(32, eps=1e-05, momentum=0.1, affine=False, track_running_stats=True)
                (4): ReLU()
                (5): Conv2d(32, 32, kernel_size=(3, 3), stride=(1, 1), padding=(1, 1), groups=32, bias=False)
                (6): Conv2d(32, 32, kernel_size=(1, 1), stride=(1, 1), bias=False)
                (7): BatchNorm2d(32, eps=1e-05, momentum=0.1, affine=False, track_running_stats=True)
              )
            )
            (1): DilConv(
              (op): Sequential(
                (0): ReLU()
                (1): Conv2d(32, 32, kernel_size=(3, 3), stride=(2, 2), padding=(2, 2), dilation=(2, 2), groups=32, bias=False)
                (2): Conv2d(32, 32, kernel_size=(1, 1), stride=(1, 1), bias=False)
                (3): BatchNorm2d(32, eps=1e-05, momentum=0.1, affine=False, track_running_stats=True)
              )
            )
            (2): FactorizedReduce(
              (relu): ReLU()
              (conv_1): Conv2d(32, 16, kernel_size=(1, 1), stride=(2, 2), bias=False)
              (conv_2): Conv2d(32, 16, kernel_size=(1, 1), stride=(2, 2), bias=False)
              (bn): BatchNorm2d(32, eps=1e-05, momentum=0.1, affine=False, track_running_stats=True)
            )
            (3): Sequential(
              (0): AvgPool2d(kernel_size=3, stride=2, padding=1)
              (1): BatchNorm2d(32, eps=1e-05, momentum=0.1, affine=False, track_running_stats=True)
            )
            (4): Sequential(
              (0): MaxPool2d(kernel_size=3, stride=2, padding=1, dilation=1, ceil_mode=False)
              (1): BatchNorm2d(32, eps=1e-05, momentum=0.1, affine=False, track_running_stats=True)
            )
            (5): Zero()
            (6): CBAM(
              (ChannelGate): ChannelGate(
                (mlp): Sequential(
                  (0): Flatten()
                  (1): Linear(in_features=32, out_features=2, bias=True)
                  (2): ReLU()
                  (3): Linear(in_features=2, out_features=32, bias=True)
                )
              )
              (SpatialGate): SpatialGate(
                (compress): ChannelPool()
                (spatial): BasicConv(
                  (conv): Conv2d(2, 1, kernel_size=(7, 7), stride=(1, 1), padding=(3, 3), bias=False)
                  (bn): BatchNorm2d(1, eps=1e-05, momentum=0.01, affine=True, track_running_stats=True)
                )
              )
              (avg): AvgPool2d(kernel_size=3, stride=2, padding=1)
            )
            (7): eca(
              (avg_pool): AdaptiveAvgPool2d(output_size=1)
              (conv): Conv1d(1, 1, kernel_size=(3,), stride=(1,), padding=(1,), bias=False)
              (sigmoid): Sigmoid()
              (avg): AvgPool2d(kernel_size=3, stride=2, padding=1)
            )
          )
          (attention): AttentionModule(
            (avg_pool): AdaptiveAvgPool2d(output_size=1)
            (fc): Sequential(
              (0): Linear(in_features=256, out_features=32, bias=False)
              (1): ReLU(inplace=True)
              (2): Linear(in_features=32, out_features=256, bias=False)
              (3): Sigmoid()
            )
          )
        )
        (11): MixedOp(
          (_ops): ModuleList(
            (0): SepConv(
              (op): Sequential(
                (0): ReLU()
                (1): Conv2d(32, 32, kernel_size=(3, 3), stride=(1, 1), padding=(1, 1), groups=32, bias=False)
                (2): Conv2d(32, 32, kernel_size=(1, 1), stride=(1, 1), bias=False)
                (3): BatchNorm2d(32, eps=1e-05, momentum=0.1, affine=False, track_running_stats=True)
                (4): ReLU()
                (5): Conv2d(32, 32, kernel_size=(3, 3), stride=(1, 1), padding=(1, 1), groups=32, bias=False)
                (6): Conv2d(32, 32, kernel_size=(1, 1), stride=(1, 1), bias=False)
                (7): BatchNorm2d(32, eps=1e-05, momentum=0.1, affine=False, track_running_stats=True)
              )
            )
            (1): DilConv(
              (op): Sequential(
                (0): ReLU()
                (1): Conv2d(32, 32, kernel_size=(3, 3), stride=(1, 1), padding=(2, 2), dilation=(2, 2), groups=32, bias=False)
                (2): Conv2d(32, 32, kernel_size=(1, 1), stride=(1, 1), bias=False)
                (3): BatchNorm2d(32, eps=1e-05, momentum=0.1, affine=False, track_running_stats=True)
              )
            )
            (2): Identity()
            (3): Sequential(
              (0): AvgPool2d(kernel_size=3, stride=1, padding=1)
              (1): BatchNorm2d(32, eps=1e-05, momentum=0.1, affine=False, track_running_stats=True)
            )
            (4): Sequential(
              (0): MaxPool2d(kernel_size=3, stride=1, padding=1, dilation=1, ceil_mode=False)
              (1): BatchNorm2d(32, eps=1e-05, momentum=0.1, affine=False, track_running_stats=True)
            )
            (5): Zero()
            (6): CBAM(
              (ChannelGate): ChannelGate(
                (mlp): Sequential(
                  (0): Flatten()
                  (1): Linear(in_features=32, out_features=2, bias=True)
                  (2): ReLU()
                  (3): Linear(in_features=2, out_features=32, bias=True)
                )
              )
              (SpatialGate): SpatialGate(
                (compress): ChannelPool()
                (spatial): BasicConv(
                  (conv): Conv2d(2, 1, kernel_size=(7, 7), stride=(1, 1), padding=(3, 3), bias=False)
                  (bn): BatchNorm2d(1, eps=1e-05, momentum=0.01, affine=True, track_running_stats=True)
                )
              )
            )
            (7): eca(
              (avg_pool): AdaptiveAvgPool2d(output_size=1)
              (conv): Conv1d(1, 1, kernel_size=(3,), stride=(1,), padding=(1,), bias=False)
              (sigmoid): Sigmoid()
            )
          )
          (attention): AttentionModule(
            (avg_pool): AdaptiveAvgPool2d(output_size=1)
            (fc): Sequential(
              (0): Linear(in_features=256, out_features=32, bias=False)
              (1): ReLU(inplace=True)
              (2): Linear(in_features=32, out_features=256, bias=False)
              (3): Sigmoid()
            )
          )
        )
        (12): MixedOp(
          (_ops): ModuleList(
            (0): SepConv(
              (op): Sequential(
                (0): ReLU()
                (1): Conv2d(32, 32, kernel_size=(3, 3), stride=(1, 1), padding=(1, 1), groups=32, bias=False)
                (2): Conv2d(32, 32, kernel_size=(1, 1), stride=(1, 1), bias=False)
                (3): BatchNorm2d(32, eps=1e-05, momentum=0.1, affine=False, track_running_stats=True)
                (4): ReLU()
                (5): Conv2d(32, 32, kernel_size=(3, 3), stride=(1, 1), padding=(1, 1), groups=32, bias=False)
                (6): Conv2d(32, 32, kernel_size=(1, 1), stride=(1, 1), bias=False)
                (7): BatchNorm2d(32, eps=1e-05, momentum=0.1, affine=False, track_running_stats=True)
              )
            )
            (1): DilConv(
              (op): Sequential(
                (0): ReLU()
                (1): Conv2d(32, 32, kernel_size=(3, 3), stride=(1, 1), padding=(2, 2), dilation=(2, 2), groups=32, bias=False)
                (2): Conv2d(32, 32, kernel_size=(1, 1), stride=(1, 1), bias=False)
                (3): BatchNorm2d(32, eps=1e-05, momentum=0.1, affine=False, track_running_stats=True)
              )
            )
            (2): Identity()
            (3): Sequential(
              (0): AvgPool2d(kernel_size=3, stride=1, padding=1)
              (1): BatchNorm2d(32, eps=1e-05, momentum=0.1, affine=False, track_running_stats=True)
            )
            (4): Sequential(
              (0): MaxPool2d(kernel_size=3, stride=1, padding=1, dilation=1, ceil_mode=False)
              (1): BatchNorm2d(32, eps=1e-05, momentum=0.1, affine=False, track_running_stats=True)
            )
            (5): Zero()
            (6): CBAM(
              (ChannelGate): ChannelGate(
                (mlp): Sequential(
                  (0): Flatten()
                  (1): Linear(in_features=32, out_features=2, bias=True)
                  (2): ReLU()
                  (3): Linear(in_features=2, out_features=32, bias=True)
                )
              )
              (SpatialGate): SpatialGate(
                (compress): ChannelPool()
                (spatial): BasicConv(
                  (conv): Conv2d(2, 1, kernel_size=(7, 7), stride=(1, 1), padding=(3, 3), bias=False)
                  (bn): BatchNorm2d(1, eps=1e-05, momentum=0.01, affine=True, track_running_stats=True)
                )
              )
            )
            (7): eca(
              (avg_pool): AdaptiveAvgPool2d(output_size=1)
              (conv): Conv1d(1, 1, kernel_size=(3,), stride=(1,), padding=(1,), bias=False)
              (sigmoid): Sigmoid()
            )
          )
          (attention): AttentionModule(
            (avg_pool): AdaptiveAvgPool2d(output_size=1)
            (fc): Sequential(
              (0): Linear(in_features=256, out_features=32, bias=False)
              (1): ReLU(inplace=True)
              (2): Linear(in_features=32, out_features=256, bias=False)
              (3): Sigmoid()
            )
          )
        )
        (13): MixedOp(
          (_ops): ModuleList(
            (0): SepConv(
              (op): Sequential(
                (0): ReLU()
                (1): Conv2d(32, 32, kernel_size=(3, 3), stride=(1, 1), padding=(1, 1), groups=32, bias=False)
                (2): Conv2d(32, 32, kernel_size=(1, 1), stride=(1, 1), bias=False)
                (3): BatchNorm2d(32, eps=1e-05, momentum=0.1, affine=False, track_running_stats=True)
                (4): ReLU()
                (5): Conv2d(32, 32, kernel_size=(3, 3), stride=(1, 1), padding=(1, 1), groups=32, bias=False)
                (6): Conv2d(32, 32, kernel_size=(1, 1), stride=(1, 1), bias=False)
                (7): BatchNorm2d(32, eps=1e-05, momentum=0.1, affine=False, track_running_stats=True)
              )
            )
            (1): DilConv(
              (op): Sequential(
                (0): ReLU()
                (1): Conv2d(32, 32, kernel_size=(3, 3), stride=(1, 1), padding=(2, 2), dilation=(2, 2), groups=32, bias=False)
                (2): Conv2d(32, 32, kernel_size=(1, 1), stride=(1, 1), bias=False)
                (3): BatchNorm2d(32, eps=1e-05, momentum=0.1, affine=False, track_running_stats=True)
              )
            )
            (2): Identity()
            (3): Sequential(
              (0): AvgPool2d(kernel_size=3, stride=1, padding=1)
              (1): BatchNorm2d(32, eps=1e-05, momentum=0.1, affine=False, track_running_stats=True)
            )
            (4): Sequential(
              (0): MaxPool2d(kernel_size=3, stride=1, padding=1, dilation=1, ceil_mode=False)
              (1): BatchNorm2d(32, eps=1e-05, momentum=0.1, affine=False, track_running_stats=True)
            )
            (5): Zero()
            (6): CBAM(
              (ChannelGate): ChannelGate(
                (mlp): Sequential(
                  (0): Flatten()
                  (1): Linear(in_features=32, out_features=2, bias=True)
                  (2): ReLU()
                  (3): Linear(in_features=2, out_features=32, bias=True)
                )
              )
              (SpatialGate): SpatialGate(
                (compress): ChannelPool()
                (spatial): BasicConv(
                  (conv): Conv2d(2, 1, kernel_size=(7, 7), stride=(1, 1), padding=(3, 3), bias=False)
                  (bn): BatchNorm2d(1, eps=1e-05, momentum=0.01, affine=True, track_running_stats=True)
                )
              )
            )
            (7): eca(
              (avg_pool): AdaptiveAvgPool2d(output_size=1)
              (conv): Conv1d(1, 1, kernel_size=(3,), stride=(1,), padding=(1,), bias=False)
              (sigmoid): Sigmoid()
            )
          )
          (attention): AttentionModule(
            (avg_pool): AdaptiveAvgPool2d(output_size=1)
            (fc): Sequential(
              (0): Linear(in_features=256, out_features=32, bias=False)
              (1): ReLU(inplace=True)
              (2): Linear(in_features=32, out_features=256, bias=False)
              (3): Sigmoid()
            )
          )
        )
      )
      (_bns): ModuleList()
    )
    (3): Cell(
      (preprocess0): FactorizedReduce(
        (relu): ReLU()
        (conv_1): Conv2d(64, 16, kernel_size=(1, 1), stride=(2, 2), bias=False)
        (conv_2): Conv2d(64, 16, kernel_size=(1, 1), stride=(2, 2), bias=False)
        (bn): BatchNorm2d(32, eps=1e-05, momentum=0.1, affine=False, track_running_stats=True)
      )
      (preprocess1): ReLUConvBN(
        (op): Sequential(
          (0): ReLU()
          (1): Conv2d(128, 32, kernel_size=(1, 1), stride=(1, 1), bias=False)
          (2): BatchNorm2d(32, eps=1e-05, momentum=0.1, affine=False, track_running_stats=True)
        )
      )
      (_ops): ModuleList(
        (0): MixedOp(
          (_ops): ModuleList(
            (0): SepConv(
              (op): Sequential(
                (0): ReLU()
                (1): Conv2d(32, 32, kernel_size=(3, 3), stride=(1, 1), padding=(1, 1), groups=32, bias=False)
                (2): Conv2d(32, 32, kernel_size=(1, 1), stride=(1, 1), bias=False)
                (3): BatchNorm2d(32, eps=1e-05, momentum=0.1, affine=False, track_running_stats=True)
                (4): ReLU()
                (5): Conv2d(32, 32, kernel_size=(3, 3), stride=(1, 1), padding=(1, 1), groups=32, bias=False)
                (6): Conv2d(32, 32, kernel_size=(1, 1), stride=(1, 1), bias=False)
                (7): BatchNorm2d(32, eps=1e-05, momentum=0.1, affine=False, track_running_stats=True)
              )
            )
            (1): DilConv(
              (op): Sequential(
                (0): ReLU()
                (1): Conv2d(32, 32, kernel_size=(3, 3), stride=(1, 1), padding=(2, 2), dilation=(2, 2), groups=32, bias=False)
                (2): Conv2d(32, 32, kernel_size=(1, 1), stride=(1, 1), bias=False)
                (3): BatchNorm2d(32, eps=1e-05, momentum=0.1, affine=False, track_running_stats=True)
              )
            )
            (2): Identity()
            (3): Sequential(
              (0): AvgPool2d(kernel_size=3, stride=1, padding=1)
              (1): BatchNorm2d(32, eps=1e-05, momentum=0.1, affine=False, track_running_stats=True)
            )
            (4): Sequential(
              (0): MaxPool2d(kernel_size=3, stride=1, padding=1, dilation=1, ceil_mode=False)
              (1): BatchNorm2d(32, eps=1e-05, momentum=0.1, affine=False, track_running_stats=True)
            )
            (5): Zero()
            (6): CBAM(
              (ChannelGate): ChannelGate(
                (mlp): Sequential(
                  (0): Flatten()
                  (1): Linear(in_features=32, out_features=2, bias=True)
                  (2): ReLU()
                  (3): Linear(in_features=2, out_features=32, bias=True)
                )
              )
              (SpatialGate): SpatialGate(
                (compress): ChannelPool()
                (spatial): BasicConv(
                  (conv): Conv2d(2, 1, kernel_size=(7, 7), stride=(1, 1), padding=(3, 3), bias=False)
                  (bn): BatchNorm2d(1, eps=1e-05, momentum=0.01, affine=True, track_running_stats=True)
                )
              )
            )
            (7): eca(
              (avg_pool): AdaptiveAvgPool2d(output_size=1)
              (conv): Conv1d(1, 1, kernel_size=(3,), stride=(1,), padding=(1,), bias=False)
              (sigmoid): Sigmoid()
            )
          )
          (attention): AttentionModule(
            (avg_pool): AdaptiveAvgPool2d(output_size=1)
            (fc): Sequential(
              (0): Linear(in_features=256, out_features=32, bias=False)
              (1): ReLU(inplace=True)
              (2): Linear(in_features=32, out_features=256, bias=False)
              (3): Sigmoid()
            )
          )
        )
        (1): MixedOp(
          (_ops): ModuleList(
            (0): SepConv(
              (op): Sequential(
                (0): ReLU()
                (1): Conv2d(32, 32, kernel_size=(3, 3), stride=(1, 1), padding=(1, 1), groups=32, bias=False)
                (2): Conv2d(32, 32, kernel_size=(1, 1), stride=(1, 1), bias=False)
                (3): BatchNorm2d(32, eps=1e-05, momentum=0.1, affine=False, track_running_stats=True)
                (4): ReLU()
                (5): Conv2d(32, 32, kernel_size=(3, 3), stride=(1, 1), padding=(1, 1), groups=32, bias=False)
                (6): Conv2d(32, 32, kernel_size=(1, 1), stride=(1, 1), bias=False)
                (7): BatchNorm2d(32, eps=1e-05, momentum=0.1, affine=False, track_running_stats=True)
              )
            )
            (1): DilConv(
              (op): Sequential(
                (0): ReLU()
                (1): Conv2d(32, 32, kernel_size=(3, 3), stride=(1, 1), padding=(2, 2), dilation=(2, 2), groups=32, bias=False)
                (2): Conv2d(32, 32, kernel_size=(1, 1), stride=(1, 1), bias=False)
                (3): BatchNorm2d(32, eps=1e-05, momentum=0.1, affine=False, track_running_stats=True)
              )
            )
            (2): Identity()
            (3): Sequential(
              (0): AvgPool2d(kernel_size=3, stride=1, padding=1)
              (1): BatchNorm2d(32, eps=1e-05, momentum=0.1, affine=False, track_running_stats=True)
            )
            (4): Sequential(
              (0): MaxPool2d(kernel_size=3, stride=1, padding=1, dilation=1, ceil_mode=False)
              (1): BatchNorm2d(32, eps=1e-05, momentum=0.1, affine=False, track_running_stats=True)
            )
            (5): Zero()
            (6): CBAM(
              (ChannelGate): ChannelGate(
                (mlp): Sequential(
                  (0): Flatten()
                  (1): Linear(in_features=32, out_features=2, bias=True)
                  (2): ReLU()
                  (3): Linear(in_features=2, out_features=32, bias=True)
                )
              )
              (SpatialGate): SpatialGate(
                (compress): ChannelPool()
                (spatial): BasicConv(
                  (conv): Conv2d(2, 1, kernel_size=(7, 7), stride=(1, 1), padding=(3, 3), bias=False)
                  (bn): BatchNorm2d(1, eps=1e-05, momentum=0.01, affine=True, track_running_stats=True)
                )
              )
            )
            (7): eca(
              (avg_pool): AdaptiveAvgPool2d(output_size=1)
              (conv): Conv1d(1, 1, kernel_size=(3,), stride=(1,), padding=(1,), bias=False)
              (sigmoid): Sigmoid()
            )
          )
          (attention): AttentionModule(
            (avg_pool): AdaptiveAvgPool2d(output_size=1)
            (fc): Sequential(
              (0): Linear(in_features=256, out_features=32, bias=False)
              (1): ReLU(inplace=True)
              (2): Linear(in_features=32, out_features=256, bias=False)
              (3): Sigmoid()
            )
          )
        )
        (2): MixedOp(
          (_ops): ModuleList(
            (0): SepConv(
              (op): Sequential(
                (0): ReLU()
                (1): Conv2d(32, 32, kernel_size=(3, 3), stride=(1, 1), padding=(1, 1), groups=32, bias=False)
                (2): Conv2d(32, 32, kernel_size=(1, 1), stride=(1, 1), bias=False)
                (3): BatchNorm2d(32, eps=1e-05, momentum=0.1, affine=False, track_running_stats=True)
                (4): ReLU()
                (5): Conv2d(32, 32, kernel_size=(3, 3), stride=(1, 1), padding=(1, 1), groups=32, bias=False)
                (6): Conv2d(32, 32, kernel_size=(1, 1), stride=(1, 1), bias=False)
                (7): BatchNorm2d(32, eps=1e-05, momentum=0.1, affine=False, track_running_stats=True)
              )
            )
            (1): DilConv(
              (op): Sequential(
                (0): ReLU()
                (1): Conv2d(32, 32, kernel_size=(3, 3), stride=(1, 1), padding=(2, 2), dilation=(2, 2), groups=32, bias=False)
                (2): Conv2d(32, 32, kernel_size=(1, 1), stride=(1, 1), bias=False)
                (3): BatchNorm2d(32, eps=1e-05, momentum=0.1, affine=False, track_running_stats=True)
              )
            )
            (2): Identity()
            (3): Sequential(
              (0): AvgPool2d(kernel_size=3, stride=1, padding=1)
              (1): BatchNorm2d(32, eps=1e-05, momentum=0.1, affine=False, track_running_stats=True)
            )
            (4): Sequential(
              (0): MaxPool2d(kernel_size=3, stride=1, padding=1, dilation=1, ceil_mode=False)
              (1): BatchNorm2d(32, eps=1e-05, momentum=0.1, affine=False, track_running_stats=True)
            )
            (5): Zero()
            (6): CBAM(
              (ChannelGate): ChannelGate(
                (mlp): Sequential(
                  (0): Flatten()
                  (1): Linear(in_features=32, out_features=2, bias=True)
                  (2): ReLU()
                  (3): Linear(in_features=2, out_features=32, bias=True)
                )
              )
              (SpatialGate): SpatialGate(
                (compress): ChannelPool()
                (spatial): BasicConv(
                  (conv): Conv2d(2, 1, kernel_size=(7, 7), stride=(1, 1), padding=(3, 3), bias=False)
                  (bn): BatchNorm2d(1, eps=1e-05, momentum=0.01, affine=True, track_running_stats=True)
                )
              )
            )
            (7): eca(
              (avg_pool): AdaptiveAvgPool2d(output_size=1)
              (conv): Conv1d(1, 1, kernel_size=(3,), stride=(1,), padding=(1,), bias=False)
              (sigmoid): Sigmoid()
            )
          )
          (attention): AttentionModule(
            (avg_pool): AdaptiveAvgPool2d(output_size=1)
            (fc): Sequential(
              (0): Linear(in_features=256, out_features=32, bias=False)
              (1): ReLU(inplace=True)
              (2): Linear(in_features=32, out_features=256, bias=False)
              (3): Sigmoid()
            )
          )
        )
        (3): MixedOp(
          (_ops): ModuleList(
            (0): SepConv(
              (op): Sequential(
                (0): ReLU()
                (1): Conv2d(32, 32, kernel_size=(3, 3), stride=(1, 1), padding=(1, 1), groups=32, bias=False)
                (2): Conv2d(32, 32, kernel_size=(1, 1), stride=(1, 1), bias=False)
                (3): BatchNorm2d(32, eps=1e-05, momentum=0.1, affine=False, track_running_stats=True)
                (4): ReLU()
                (5): Conv2d(32, 32, kernel_size=(3, 3), stride=(1, 1), padding=(1, 1), groups=32, bias=False)
                (6): Conv2d(32, 32, kernel_size=(1, 1), stride=(1, 1), bias=False)
                (7): BatchNorm2d(32, eps=1e-05, momentum=0.1, affine=False, track_running_stats=True)
              )
            )
            (1): DilConv(
              (op): Sequential(
                (0): ReLU()
                (1): Conv2d(32, 32, kernel_size=(3, 3), stride=(1, 1), padding=(2, 2), dilation=(2, 2), groups=32, bias=False)
                (2): Conv2d(32, 32, kernel_size=(1, 1), stride=(1, 1), bias=False)
                (3): BatchNorm2d(32, eps=1e-05, momentum=0.1, affine=False, track_running_stats=True)
              )
            )
            (2): Identity()
            (3): Sequential(
              (0): AvgPool2d(kernel_size=3, stride=1, padding=1)
              (1): BatchNorm2d(32, eps=1e-05, momentum=0.1, affine=False, track_running_stats=True)
            )
            (4): Sequential(
              (0): MaxPool2d(kernel_size=3, stride=1, padding=1, dilation=1, ceil_mode=False)
              (1): BatchNorm2d(32, eps=1e-05, momentum=0.1, affine=False, track_running_stats=True)
            )
            (5): Zero()
            (6): CBAM(
              (ChannelGate): ChannelGate(
                (mlp): Sequential(
                  (0): Flatten()
                  (1): Linear(in_features=32, out_features=2, bias=True)
                  (2): ReLU()
                  (3): Linear(in_features=2, out_features=32, bias=True)
                )
              )
              (SpatialGate): SpatialGate(
                (compress): ChannelPool()
                (spatial): BasicConv(
                  (conv): Conv2d(2, 1, kernel_size=(7, 7), stride=(1, 1), padding=(3, 3), bias=False)
                  (bn): BatchNorm2d(1, eps=1e-05, momentum=0.01, affine=True, track_running_stats=True)
                )
              )
            )
            (7): eca(
              (avg_pool): AdaptiveAvgPool2d(output_size=1)
              (conv): Conv1d(1, 1, kernel_size=(3,), stride=(1,), padding=(1,), bias=False)
              (sigmoid): Sigmoid()
            )
          )
          (attention): AttentionModule(
            (avg_pool): AdaptiveAvgPool2d(output_size=1)
            (fc): Sequential(
              (0): Linear(in_features=256, out_features=32, bias=False)
              (1): ReLU(inplace=True)
              (2): Linear(in_features=32, out_features=256, bias=False)
              (3): Sigmoid()
            )
          )
        )
        (4): MixedOp(
          (_ops): ModuleList(
            (0): SepConv(
              (op): Sequential(
                (0): ReLU()
                (1): Conv2d(32, 32, kernel_size=(3, 3), stride=(1, 1), padding=(1, 1), groups=32, bias=False)
                (2): Conv2d(32, 32, kernel_size=(1, 1), stride=(1, 1), bias=False)
                (3): BatchNorm2d(32, eps=1e-05, momentum=0.1, affine=False, track_running_stats=True)
                (4): ReLU()
                (5): Conv2d(32, 32, kernel_size=(3, 3), stride=(1, 1), padding=(1, 1), groups=32, bias=False)
                (6): Conv2d(32, 32, kernel_size=(1, 1), stride=(1, 1), bias=False)
                (7): BatchNorm2d(32, eps=1e-05, momentum=0.1, affine=False, track_running_stats=True)
              )
            )
            (1): DilConv(
              (op): Sequential(
                (0): ReLU()
                (1): Conv2d(32, 32, kernel_size=(3, 3), stride=(1, 1), padding=(2, 2), dilation=(2, 2), groups=32, bias=False)
                (2): Conv2d(32, 32, kernel_size=(1, 1), stride=(1, 1), bias=False)
                (3): BatchNorm2d(32, eps=1e-05, momentum=0.1, affine=False, track_running_stats=True)
              )
            )
            (2): Identity()
            (3): Sequential(
              (0): AvgPool2d(kernel_size=3, stride=1, padding=1)
              (1): BatchNorm2d(32, eps=1e-05, momentum=0.1, affine=False, track_running_stats=True)
            )
            (4): Sequential(
              (0): MaxPool2d(kernel_size=3, stride=1, padding=1, dilation=1, ceil_mode=False)
              (1): BatchNorm2d(32, eps=1e-05, momentum=0.1, affine=False, track_running_stats=True)
            )
            (5): Zero()
            (6): CBAM(
              (ChannelGate): ChannelGate(
                (mlp): Sequential(
                  (0): Flatten()
                  (1): Linear(in_features=32, out_features=2, bias=True)
                  (2): ReLU()
                  (3): Linear(in_features=2, out_features=32, bias=True)
                )
              )
              (SpatialGate): SpatialGate(
                (compress): ChannelPool()
                (spatial): BasicConv(
                  (conv): Conv2d(2, 1, kernel_size=(7, 7), stride=(1, 1), padding=(3, 3), bias=False)
                  (bn): BatchNorm2d(1, eps=1e-05, momentum=0.01, affine=True, track_running_stats=True)
                )
              )
            )
            (7): eca(
              (avg_pool): AdaptiveAvgPool2d(output_size=1)
              (conv): Conv1d(1, 1, kernel_size=(3,), stride=(1,), padding=(1,), bias=False)
              (sigmoid): Sigmoid()
            )
          )
          (attention): AttentionModule(
            (avg_pool): AdaptiveAvgPool2d(output_size=1)
            (fc): Sequential(
              (0): Linear(in_features=256, out_features=32, bias=False)
              (1): ReLU(inplace=True)
              (2): Linear(in_features=32, out_features=256, bias=False)
              (3): Sigmoid()
            )
          )
        )
        (5): MixedOp(
          (_ops): ModuleList(
            (0): SepConv(
              (op): Sequential(
                (0): ReLU()
…
          )
        )
        (12): MixedOp(
          (_ops): ModuleList(
            (0): SepConv(
              (op): Sequential(
                (0): ReLU()
                (1): Conv2d(64, 64, kernel_size=(3, 3), stride=(1, 1), padding=(1, 1), groups=64, bias=False)
                (2): Conv2d(64, 64, kernel_size=(1, 1), stride=(1, 1), bias=False)
                (3): BatchNorm2d(64, eps=1e-05, momentum=0.1, affine=False, track_running_stats=True)
                (4): ReLU()
                (5): Conv2d(64, 64, kernel_size=(3, 3), stride=(1, 1), padding=(1, 1), groups=64, bias=False)
                (6): Conv2d(64, 64, kernel_size=(1, 1), stride=(1, 1), bias=False)
                (7): BatchNorm2d(64, eps=1e-05, momentum=0.1, affine=False, track_running_stats=True)
              )
            )
            (1): DilConv(
              (op): Sequential(
                (0): ReLU()
                (1): Conv2d(64, 64, kernel_size=(3, 3), stride=(1, 1), padding=(2, 2), dilation=(2, 2), groups=64, bias=False)
                (2): Conv2d(64, 64, kernel_size=(1, 1), stride=(1, 1), bias=False)
                (3): BatchNorm2d(64, eps=1e-05, momentum=0.1, affine=False, track_running_stats=True)
              )
            )
            (2): Identity()
            (3): Sequential(
              (0): AvgPool2d(kernel_size=3, stride=1, padding=1)
              (1): BatchNorm2d(64, eps=1e-05, momentum=0.1, affine=False, track_running_stats=True)
            )
            (4): Sequential(
              (0): MaxPool2d(kernel_size=3, stride=1, padding=1, dilation=1, ceil_mode=False)
              (1): BatchNorm2d(64, eps=1e-05, momentum=0.1, affine=False, track_running_stats=True)
            )
            (5): Zero()
            (6): CBAM(
              (ChannelGate): ChannelGate(
                (mlp): Sequential(
                  (0): Flatten()
                  (1): Linear(in_features=64, out_features=4, bias=True)
                  (2): ReLU()
                  (3): Linear(in_features=4, out_features=64, bias=True)
                )
              )
              (SpatialGate): SpatialGate(
                (compress): ChannelPool()
                (spatial): BasicConv(
                  (conv): Conv2d(2, 1, kernel_size=(7, 7), stride=(1, 1), padding=(3, 3), bias=False)
                  (bn): BatchNorm2d(1, eps=1e-05, momentum=0.01, affine=True, track_running_stats=True)
                )
              )
            )
            (7): eca(
              (avg_pool): AdaptiveAvgPool2d(output_size=1)
              (conv): Conv1d(1, 1, kernel_size=(3,), stride=(1,), padding=(1,), bias=False)
              (sigmoid): Sigmoid()
            )
          )
          (attention): AttentionModule(
            (avg_pool): AdaptiveAvgPool2d(output_size=1)
            (fc): Sequential(
              (0): Linear(in_features=512, out_features=64, bias=False)
              (1): ReLU(inplace=True)
              (2): Linear(in_features=64, out_features=512, bias=False)
              (3): Sigmoid()
            )
          )
        )
        (13): MixedOp(
          (_ops): ModuleList(
            (0): SepConv(
              (op): Sequential(
                (0): ReLU()
                (1): Conv2d(64, 64, kernel_size=(3, 3), stride=(1, 1), padding=(1, 1), groups=64, bias=False)
                (2): Conv2d(64, 64, kernel_size=(1, 1), stride=(1, 1), bias=False)
                (3): BatchNorm2d(64, eps=1e-05, momentum=0.1, affine=False, track_running_stats=True)
                (4): ReLU()
                (5): Conv2d(64, 64, kernel_size=(3, 3), stride=(1, 1), padding=(1, 1), groups=64, bias=False)
                (6): Conv2d(64, 64, kernel_size=(1, 1), stride=(1, 1), bias=False)
                (7): BatchNorm2d(64, eps=1e-05, momentum=0.1, affine=False, track_running_stats=True)
              )
            )
            (1): DilConv(
              (op): Sequential(
                (0): ReLU()
                (1): Conv2d(64, 64, kernel_size=(3, 3), stride=(1, 1), padding=(2, 2), dilation=(2, 2), groups=64, bias=False)
                (2): Conv2d(64, 64, kernel_size=(1, 1), stride=(1, 1), bias=False)
                (3): BatchNorm2d(64, eps=1e-05, momentum=0.1, affine=False, track_running_stats=True)
              )
            )
            (2): Identity()
            (3): Sequential(
              (0): AvgPool2d(kernel_size=3, stride=1, padding=1)
              (1): BatchNorm2d(64, eps=1e-05, momentum=0.1, affine=False, track_running_stats=True)
            )
            (4): Sequential(
              (0): MaxPool2d(kernel_size=3, stride=1, padding=1, dilation=1, ceil_mode=False)
              (1): BatchNorm2d(64, eps=1e-05, momentum=0.1, affine=False, track_running_stats=True)
            )
            (5): Zero()
            (6): CBAM(
              (ChannelGate): ChannelGate(
                (mlp): Sequential(
                  (0): Flatten()
                  (1): Linear(in_features=64, out_features=4, bias=True)
                  (2): ReLU()
                  (3): Linear(in_features=4, out_features=64, bias=True)
                )
              )
              (SpatialGate): SpatialGate(
                (compress): ChannelPool()
                (spatial): BasicConv(
                  (conv): Conv2d(2, 1, kernel_size=(7, 7), stride=(1, 1), padding=(3, 3), bias=False)
                  (bn): BatchNorm2d(1, eps=1e-05, momentum=0.01, affine=True, track_running_stats=True)
                )
              )
            )
            (7): eca(
              (avg_pool): AdaptiveAvgPool2d(output_size=1)
              (conv): Conv1d(1, 1, kernel_size=(3,), stride=(1,), padding=(1,), bias=False)
              (sigmoid): Sigmoid()
            )
          )
          (attention): AttentionModule(
            (avg_pool): AdaptiveAvgPool2d(output_size=1)
            (fc): Sequential(
              (0): Linear(in_features=512, out_features=64, bias=False)
              (1): ReLU(inplace=True)
              (2): Linear(in_features=64, out_features=512, bias=False)
              (3): Sigmoid()
            )
          )
        )
      )
      (_bns): ModuleList()
    )
    (5): Cell(
      (preprocess0): FactorizedReduce(
        (relu): ReLU()
        (conv_1): Conv2d(128, 32, kernel_size=(1, 1), stride=(2, 2), bias=False)
        (conv_2): Conv2d(128, 32, kernel_size=(1, 1), stride=(2, 2), bias=False)
        (bn): BatchNorm2d(64, eps=1e-05, momentum=0.1, affine=False, track_running_stats=True)
      )
      (preprocess1): ReLUConvBN(
        (op): Sequential(
          (0): ReLU()
          (1): Conv2d(256, 64, kernel_size=(1, 1), stride=(1, 1), bias=False)
          (2): BatchNorm2d(64, eps=1e-05, momentum=0.1, affine=False, track_running_stats=True)
        )
      )
      (_ops): ModuleList(
        (0): MixedOp(
          (_ops): ModuleList(
            (0): SepConv(
              (op): Sequential(
                (0): ReLU()
                (1): Conv2d(64, 64, kernel_size=(3, 3), stride=(1, 1), padding=(1, 1), groups=64, bias=False)
                (2): Conv2d(64, 64, kernel_size=(1, 1), stride=(1, 1), bias=False)
                (3): BatchNorm2d(64, eps=1e-05, momentum=0.1, affine=False, track_running_stats=True)
                (4): ReLU()
                (5): Conv2d(64, 64, kernel_size=(3, 3), stride=(1, 1), padding=(1, 1), groups=64, bias=False)
                (6): Conv2d(64, 64, kernel_size=(1, 1), stride=(1, 1), bias=False)
                (7): BatchNorm2d(64, eps=1e-05, momentum=0.1, affine=False, track_running_stats=True)
              )
            )
            (1): DilConv(
              (op): Sequential(
                (0): ReLU()
                (1): Conv2d(64, 64, kernel_size=(3, 3), stride=(1, 1), padding=(2, 2), dilation=(2, 2), groups=64, bias=False)
                (2): Conv2d(64, 64, kernel_size=(1, 1), stride=(1, 1), bias=False)
                (3): BatchNorm2d(64, eps=1e-05, momentum=0.1, affine=False, track_running_stats=True)
              )
            )
            (2): Identity()
            (3): Sequential(
              (0): AvgPool2d(kernel_size=3, stride=1, padding=1)
              (1): BatchNorm2d(64, eps=1e-05, momentum=0.1, affine=False, track_running_stats=True)
            )
            (4): Sequential(
              (0): MaxPool2d(kernel_size=3, stride=1, padding=1, dilation=1, ceil_mode=False)
              (1): BatchNorm2d(64, eps=1e-05, momentum=0.1, affine=False, track_running_stats=True)
            )
            (5): Zero()
            (6): CBAM(
              (ChannelGate): ChannelGate(
                (mlp): Sequential(
                  (0): Flatten()
                  (1): Linear(in_features=64, out_features=4, bias=True)
                  (2): ReLU()
                  (3): Linear(in_features=4, out_features=64, bias=True)
                )
              )
              (SpatialGate): SpatialGate(
                (compress): ChannelPool()
                (spatial): BasicConv(
                  (conv): Conv2d(2, 1, kernel_size=(7, 7), stride=(1, 1), padding=(3, 3), bias=False)
                  (bn): BatchNorm2d(1, eps=1e-05, momentum=0.01, affine=True, track_running_stats=True)
                )
              )
            )
            (7): eca(
              (avg_pool): AdaptiveAvgPool2d(output_size=1)
              (conv): Conv1d(1, 1, kernel_size=(3,), stride=(1,), padding=(1,), bias=False)
              (sigmoid): Sigmoid()
            )
          )
          (attention): AttentionModule(
            (avg_pool): AdaptiveAvgPool2d(output_size=1)
            (fc): Sequential(
              (0): Linear(in_features=512, out_features=64, bias=False)
              (1): ReLU(inplace=True)
              (2): Linear(in_features=64, out_features=512, bias=False)
              (3): Sigmoid()
            )
          )
        )
        (1): MixedOp(
          (_ops): ModuleList(
            (0): SepConv(
              (op): Sequential(
                (0): ReLU()
                (1): Conv2d(64, 64, kernel_size=(3, 3), stride=(1, 1), padding=(1, 1), groups=64, bias=False)
                (2): Conv2d(64, 64, kernel_size=(1, 1), stride=(1, 1), bias=False)
                (3): BatchNorm2d(64, eps=1e-05, momentum=0.1, affine=False, track_running_stats=True)
                (4): ReLU()
                (5): Conv2d(64, 64, kernel_size=(3, 3), stride=(1, 1), padding=(1, 1), groups=64, bias=False)
                (6): Conv2d(64, 64, kernel_size=(1, 1), stride=(1, 1), bias=False)
                (7): BatchNorm2d(64, eps=1e-05, momentum=0.1, affine=False, track_running_stats=True)
              )
            )
            (1): DilConv(
              (op): Sequential(
                (0): ReLU()
                (1): Conv2d(64, 64, kernel_size=(3, 3), stride=(1, 1), padding=(2, 2), dilation=(2, 2), groups=64, bias=False)
                (2): Conv2d(64, 64, kernel_size=(1, 1), stride=(1, 1), bias=False)
                (3): BatchNorm2d(64, eps=1e-05, momentum=0.1, affine=False, track_running_stats=True)
              )
            )
            (2): Identity()
            (3): Sequential(
              (0): AvgPool2d(kernel_size=3, stride=1, padding=1)
              (1): BatchNorm2d(64, eps=1e-05, momentum=0.1, affine=False, track_running_stats=True)
            )
            (4): Sequential(
              (0): MaxPool2d(kernel_size=3, stride=1, padding=1, dilation=1, ceil_mode=False)
              (1): BatchNorm2d(64, eps=1e-05, momentum=0.1, affine=False, track_running_stats=True)
            )
            (5): Zero()
            (6): CBAM(
              (ChannelGate): ChannelGate(
                (mlp): Sequential(
                  (0): Flatten()
                  (1): Linear(in_features=64, out_features=4, bias=True)
                  (2): ReLU()
                  (3): Linear(in_features=4, out_features=64, bias=True)
                )
              )
              (SpatialGate): SpatialGate(
                (compress): ChannelPool()
                (spatial): BasicConv(
                  (conv): Conv2d(2, 1, kernel_size=(7, 7), stride=(1, 1), padding=(3, 3), bias=False)
                  (bn): BatchNorm2d(1, eps=1e-05, momentum=0.01, affine=True, track_running_stats=True)
                )
              )
            )
            (7): eca(
              (avg_pool): AdaptiveAvgPool2d(output_size=1)
              (conv): Conv1d(1, 1, kernel_size=(3,), stride=(1,), padding=(1,), bias=False)
              (sigmoid): Sigmoid()
            )
          )
          (attention): AttentionModule(
            (avg_pool): AdaptiveAvgPool2d(output_size=1)
            (fc): Sequential(
              (0): Linear(in_features=512, out_features=64, bias=False)
              (1): ReLU(inplace=True)
              (2): Linear(in_features=64, out_features=512, bias=False)
              (3): Sigmoid()
            )
          )
        )
        (2): MixedOp(
          (_ops): ModuleList(
            (0): SepConv(
              (op): Sequential(
                (0): ReLU()
                (1): Conv2d(64, 64, kernel_size=(3, 3), stride=(1, 1), padding=(1, 1), groups=64, bias=False)
                (2): Conv2d(64, 64, kernel_size=(1, 1), stride=(1, 1), bias=False)
                (3): BatchNorm2d(64, eps=1e-05, momentum=0.1, affine=False, track_running_stats=True)
                (4): ReLU()
                (5): Conv2d(64, 64, kernel_size=(3, 3), stride=(1, 1), padding=(1, 1), groups=64, bias=False)
                (6): Conv2d(64, 64, kernel_size=(1, 1), stride=(1, 1), bias=False)
                (7): BatchNorm2d(64, eps=1e-05, momentum=0.1, affine=False, track_running_stats=True)
              )
            )
            (1): DilConv(
              (op): Sequential(
                (0): ReLU()
                (1): Conv2d(64, 64, kernel_size=(3, 3), stride=(1, 1), padding=(2, 2), dilation=(2, 2), groups=64, bias=False)
                (2): Conv2d(64, 64, kernel_size=(1, 1), stride=(1, 1), bias=False)
                (3): BatchNorm2d(64, eps=1e-05, momentum=0.1, affine=False, track_running_stats=True)
              )
            )
            (2): Identity()
            (3): Sequential(
              (0): AvgPool2d(kernel_size=3, stride=1, padding=1)
              (1): BatchNorm2d(64, eps=1e-05, momentum=0.1, affine=False, track_running_stats=True)
            )
            (4): Sequential(
              (0): MaxPool2d(kernel_size=3, stride=1, padding=1, dilation=1, ceil_mode=False)
              (1): BatchNorm2d(64, eps=1e-05, momentum=0.1, affine=False, track_running_stats=True)
            )
            (5): Zero()
            (6): CBAM(
              (ChannelGate): ChannelGate(
                (mlp): Sequential(
                  (0): Flatten()
                  (1): Linear(in_features=64, out_features=4, bias=True)
                  (2): ReLU()
                  (3): Linear(in_features=4, out_features=64, bias=True)
                )
              )
              (SpatialGate): SpatialGate(
                (compress): ChannelPool()
                (spatial): BasicConv(
                  (conv): Conv2d(2, 1, kernel_size=(7, 7), stride=(1, 1), padding=(3, 3), bias=False)
                  (bn): BatchNorm2d(1, eps=1e-05, momentum=0.01, affine=True, track_running_stats=True)
                )
              )
            )
            (7): eca(
              (avg_pool): AdaptiveAvgPool2d(output_size=1)
              (conv): Conv1d(1, 1, kernel_size=(3,), stride=(1,), padding=(1,), bias=False)
              (sigmoid): Sigmoid()
            )
          )
          (attention): AttentionModule(
            (avg_pool): AdaptiveAvgPool2d(output_size=1)
            (fc): Sequential(
              (0): Linear(in_features=512, out_features=64, bias=False)
              (1): ReLU(inplace=True)
              (2): Linear(in_features=64, out_features=512, bias=False)
              (3): Sigmoid()
            )
          )
        )
        (3): MixedOp(
          (_ops): ModuleList(
            (0): SepConv(
              (op): Sequential(
                (0): ReLU()
                (1): Conv2d(64, 64, kernel_size=(3, 3), stride=(1, 1), padding=(1, 1), groups=64, bias=False)
                (2): Conv2d(64, 64, kernel_size=(1, 1), stride=(1, 1), bias=False)
                (3): BatchNorm2d(64, eps=1e-05, momentum=0.1, affine=False, track_running_stats=True)
                (4): ReLU()
                (5): Conv2d(64, 64, kernel_size=(3, 3), stride=(1, 1), padding=(1, 1), groups=64, bias=False)
                (6): Conv2d(64, 64, kernel_size=(1, 1), stride=(1, 1), bias=False)
                (7): BatchNorm2d(64, eps=1e-05, momentum=0.1, affine=False, track_running_stats=True)
              )
            )
            (1): DilConv(
              (op): Sequential(
                (0): ReLU()
                (1): Conv2d(64, 64, kernel_size=(3, 3), stride=(1, 1), padding=(2, 2), dilation=(2, 2), groups=64, bias=False)
                (2): Conv2d(64, 64, kernel_size=(1, 1), stride=(1, 1), bias=False)
                (3): BatchNorm2d(64, eps=1e-05, momentum=0.1, affine=False, track_running_stats=True)
              )
            )
            (2): Identity()
            (3): Sequential(
              (0): AvgPool2d(kernel_size=3, stride=1, padding=1)
              (1): BatchNorm2d(64, eps=1e-05, momentum=0.1, affine=False, track_running_stats=True)
            )
            (4): Sequential(
              (0): MaxPool2d(kernel_size=3, stride=1, padding=1, dilation=1, ceil_mode=False)
              (1): BatchNorm2d(64, eps=1e-05, momentum=0.1, affine=False, track_running_stats=True)
            )
            (5): Zero()
            (6): CBAM(
              (ChannelGate): ChannelGate(
                (mlp): Sequential(
                  (0): Flatten()
                  (1): Linear(in_features=64, out_features=4, bias=True)
                  (2): ReLU()
                  (3): Linear(in_features=4, out_features=64, bias=True)
                )
              )
              (SpatialGate): SpatialGate(
                (compress): ChannelPool()
                (spatial): BasicConv(
                  (conv): Conv2d(2, 1, kernel_size=(7, 7), stride=(1, 1), padding=(3, 3), bias=False)
                  (bn): BatchNorm2d(1, eps=1e-05, momentum=0.01, affine=True, track_running_stats=True)
                )
              )
            )
            (7): eca(
              (avg_pool): AdaptiveAvgPool2d(output_size=1)
              (conv): Conv1d(1, 1, kernel_size=(3,), stride=(1,), padding=(1,), bias=False)
              (sigmoid): Sigmoid()
            )
          )
          (attention): AttentionModule(
            (avg_pool): AdaptiveAvgPool2d(output_size=1)
            (fc): Sequential(
              (0): Linear(in_features=512, out_features=64, bias=False)
              (1): ReLU(inplace=True)
              (2): Linear(in_features=64, out_features=512, bias=False)
              (3): Sigmoid()
            )
          )
        )
        (4): MixedOp(
          (_ops): ModuleList(
            (0): SepConv(
              (op): Sequential(
                (0): ReLU()
                (1): Conv2d(64, 64, kernel_size=(3, 3), stride=(1, 1), padding=(1, 1), groups=64, bias=False)
                (2): Conv2d(64, 64, kernel_size=(1, 1), stride=(1, 1), bias=False)
                (3): BatchNorm2d(64, eps=1e-05, momentum=0.1, affine=False, track_running_stats=True)
                (4): ReLU()
                (5): Conv2d(64, 64, kernel_size=(3, 3), stride=(1, 1), padding=(1, 1), groups=64, bias=False)
                (6): Conv2d(64, 64, kernel_size=(1, 1), stride=(1, 1), bias=False)
                (7): BatchNorm2d(64, eps=1e-05, momentum=0.1, affine=False, track_running_stats=True)
              )
            )
            (1): DilConv(
              (op): Sequential(
                (0): ReLU()
                (1): Conv2d(64, 64, kernel_size=(3, 3), stride=(1, 1), padding=(2, 2), dilation=(2, 2), groups=64, bias=False)
                (2): Conv2d(64, 64, kernel_size=(1, 1), stride=(1, 1), bias=False)
                (3): BatchNorm2d(64, eps=1e-05, momentum=0.1, affine=False, track_running_stats=True)
              )
            )
            (2): Identity()
            (3): Sequential(
              (0): AvgPool2d(kernel_size=3, stride=1, padding=1)
              (1): BatchNorm2d(64, eps=1e-05, momentum=0.1, affine=False, track_running_stats=True)
            )
            (4): Sequential(
              (0): MaxPool2d(kernel_size=3, stride=1, padding=1, dilation=1, ceil_mode=False)
              (1): BatchNorm2d(64, eps=1e-05, momentum=0.1, affine=False, track_running_stats=True)
            )
            (5): Zero()
            (6): CBAM(
              (ChannelGate): ChannelGate(
                (mlp): Sequential(
                  (0): Flatten()
                  (1): Linear(in_features=64, out_features=4, bias=True)
                  (2): ReLU()
                  (3): Linear(in_features=4, out_features=64, bias=True)
                )
              )
              (SpatialGate): SpatialGate(
                (compress): ChannelPool()
                (spatial): BasicConv(
                  (conv): Conv2d(2, 1, kernel_size=(7, 7), stride=(1, 1), padding=(3, 3), bias=False)
                  (bn): BatchNorm2d(1, eps=1e-05, momentum=0.01, affine=True, track_running_stats=True)
                )
              )
            )
            (7): eca(
              (avg_pool): AdaptiveAvgPool2d(output_size=1)
              (conv): Conv1d(1, 1, kernel_size=(3,), stride=(1,), padding=(1,), bias=False)
              (sigmoid): Sigmoid()
            )
          )
          (attention): AttentionModule(
            (avg_pool): AdaptiveAvgPool2d(output_size=1)
            (fc): Sequential(
              (0): Linear(in_features=512, out_features=64, bias=False)
              (1): ReLU(inplace=True)
              (2): Linear(in_features=64, out_features=512, bias=False)
              (3): Sigmoid()
            )
          )
        )
        (5): MixedOp(
          (_ops): ModuleList(
            (0): SepConv(
              (op): Sequential(
                (0): ReLU()
                (1): Conv2d(64, 64, kernel_size=(3, 3), stride=(1, 1), padding=(1, 1), groups=64, bias=False)
                (2): Conv2d(64, 64, kernel_size=(1, 1), stride=(1, 1), bias=False)
                (3): BatchNorm2d(64, eps=1e-05, momentum=0.1, affine=False, track_running_stats=True)
                (4): ReLU()
                (5): Conv2d(64, 64, kernel_size=(3, 3), stride=(1, 1), padding=(1, 1), groups=64, bias=False)
                (6): Conv2d(64, 64, kernel_size=(1, 1), stride=(1, 1), bias=False)
                (7): BatchNorm2d(64, eps=1e-05, momentum=0.1, affine=False, track_running_stats=True)
              )
            )
            (1): DilConv(
              (op): Sequential(
                (0): ReLU()
                (1): Conv2d(64, 64, kernel_size=(3, 3), stride=(1, 1), padding=(2, 2), dilation=(2, 2), groups=64, bias=False)
                (2): Conv2d(64, 64, kernel_size=(1, 1), stride=(1, 1), bias=False)
                (3): BatchNorm2d(64, eps=1e-05, momentum=0.1, affine=False, track_running_stats=True)
              )
            )
            (2): Identity()
            (3): Sequential(
              (0): AvgPool2d(kernel_size=3, stride=1, padding=1)
              (1): BatchNorm2d(64, eps=1e-05, momentum=0.1, affine=False, track_running_stats=True)
            )
            (4): Sequential(
              (0): MaxPool2d(kernel_size=3, stride=1, padding=1, dilation=1, ceil_mode=False)
              (1): BatchNorm2d(64, eps=1e-05, momentum=0.1, affine=False, track_running_stats=True)
            )
            (5): Zero()
            (6): CBAM(
              (ChannelGate): ChannelGate(
                (mlp): Sequential(
                  (0): Flatten()
                  (1): Linear(in_features=64, out_features=4, bias=True)
                  (2): ReLU()
                  (3): Linear(in_features=4, out_features=64, bias=True)
                )
              )
              (SpatialGate): SpatialGate(
                (compress): ChannelPool()
                (spatial): BasicConv(
                  (conv): Conv2d(2, 1, kernel_size=(7, 7), stride=(1, 1), padding=(3, 3), bias=False)
                  (bn): BatchNorm2d(1, eps=1e-05, momentum=0.01, affine=True, track_running_stats=True)
                )
              )
            )
            (7): eca(
              (avg_pool): AdaptiveAvgPool2d(output_size=1)
              (conv): Conv1d(1, 1, kernel_size=(3,), stride=(1,), padding=(1,), bias=False)
              (sigmoid): Sigmoid()
            )
          )
          (attention): AttentionModule(
            (avg_pool): AdaptiveAvgPool2d(output_size=1)
            (fc): Sequential(
              (0): Linear(in_features=512, out_features=64, bias=False)
              (1): ReLU(inplace=True)
              (2): Linear(in_features=64, out_features=512, bias=False)
              (3): Sigmoid()
            )
          )
        )
        (6): MixedOp(
          (_ops): ModuleList(
            (0): SepConv(
              (op): Sequential(
                (0): ReLU()
                (1): Conv2d(64, 64, kernel_size=(3, 3), stride=(1, 1), padding=(1, 1), groups=64, bias=False)
                (2): Conv2d(64, 64, kernel_size=(1, 1), stride=(1, 1), bias=False)
                (3): BatchNorm2d(64, eps=1e-05, momentum=0.1, affine=False, track_running_stats=True)
                (4): ReLU()
                (5): Conv2d(64, 64, kernel_size=(3, 3), stride=(1, 1), padding=(1, 1), groups=64, bias=False)
                (6): Conv2d(64, 64, kernel_size=(1, 1), stride=(1, 1), bias=False)
                (7): BatchNorm2d(64, eps=1e-05, momentum=0.1, affine=False, track_running_stats=True)
              )
            )
            (1): DilConv(
              (op): Sequential(
                (0): ReLU()
                (1): Conv2d(64, 64, kernel_size=(3, 3), stride=(1, 1), padding=(2, 2), dilation=(2, 2), groups=64, bias=False)
                (2): Conv2d(64, 64, kernel_size=(1, 1), stride=(1, 1), bias=False)
                (3): BatchNorm2d(64, eps=1e-05, momentum=0.1, affine=False, track_running_stats=True)
              )
            )
            (2): Identity()
            (3): Sequential(
              (0): AvgPool2d(kernel_size=3, stride=1, padding=1)
              (1): BatchNorm2d(64, eps=1e-05, momentum=0.1, affine=False, track_running_stats=True)
            )
            (4): Sequential(
              (0): MaxPool2d(kernel_size=3, stride=1, padding=1, dilation=1, ceil_mode=False)
              (1): BatchNorm2d(64, eps=1e-05, momentum=0.1, affine=False, track_running_stats=True)
            )
            (5): Zero()
            (6): CBAM(
              (ChannelGate): ChannelGate(
                (mlp): Sequential(
                  (0): Flatten()
                  (1): Linear(in_features=64, out_features=4, bias=True)
                  (2): ReLU()
                  (3): Linear(in_features=4, out_features=64, bias=True)
                )
              )
              (SpatialGate): SpatialGate(
                (compress): ChannelPool()
                (spatial): BasicConv(
                  (conv): Conv2d(2, 1, kernel_size=(7, 7), stride=(1, 1), padding=(3, 3), bias=False)
                  (bn): BatchNorm2d(1, eps=1e-05, momentum=0.01, affine=True, track_running_stats=True)
                )
              )
            )
            (7): eca(
              (avg_pool): AdaptiveAvgPool2d(output_size=1)
              (conv): Conv1d(1, 1, kernel_size=(3,), stride=(1,), padding=(1,), bias=False)
              (sigmoid): Sigmoid()
            )
          )
          (attention): AttentionModule(
            (avg_pool): AdaptiveAvgPool2d(output_size=1)
            (fc): Sequential(
              (0): Linear(in_features=512, out_features=64, bias=False)
              (1): ReLU(inplace=True)
              (2): Linear(in_features=64, out_features=512, bias=False)
              (3): Sigmoid()
            )
          )
        )
        (7): MixedOp(
          (_ops): ModuleList(
            (0): SepConv(
              (op): Sequential(
                (0): ReLU()
                (1): Conv2d(64, 64, kernel_size=(3, 3), stride=(1, 1), padding=(1, 1), groups=64, bias=False)
                (2): Conv2d(64, 64, kernel_size=(1, 1), stride=(1, 1), bias=False)
                (3): BatchNorm2d(64, eps=1e-05, momentum=0.1, affine=False, track_running_stats=True)
                (4): ReLU()
                (5): Conv2d(64, 64, kernel_size=(3, 3), stride=(1, 1), padding=(1, 1), groups=64, bias=False)
                (6): Conv2d(64, 64, kernel_size=(1, 1), stride=(1, 1), bias=False)
                (7): BatchNorm2d(64, eps=1e-05, momentum=0.1, affine=False, track_running_stats=True)
              )
            )
            (1): DilConv(
              (op): Sequential(
                (0): ReLU()
                (1): Conv2d(64, 64, kernel_size=(3, 3), stride=(1, 1), padding=(2, 2), dilation=(2, 2), groups=64, bias=False)
                (2): Conv2d(64, 64, kernel_size=(1, 1), stride=(1, 1), bias=False)
                (3): BatchNorm2d(64, eps=1e-05, momentum=0.1, affine=False, track_running_stats=True)
              )
            )
            (2): Identity()
            (3): Sequential(
              (0): AvgPool2d(kernel_size=3, stride=1, padding=1)
              (1): BatchNorm2d(64, eps=1e-05, momentum=0.1, affine=False, track_running_stats=True)
            )
            (4): Sequential(
              (0): MaxPool2d(kernel_size=3, stride=1, padding=1, dilation=1, ceil_mode=False)
              (1): BatchNorm2d(64, eps=1e-05, momentum=0.1, affine=False, track_running_stats=True)
            )
            (5): Zero()
            (6): CBAM(
              (ChannelGate): ChannelGate(
                (mlp): Sequential(
                  (0): Flatten()
                  (1): Linear(in_features=64, out_features=4, bias=True)
                  (2): ReLU()
                  (3): Linear(in_features=4, out_features=64, bias=True)
                )
              )
              (SpatialGate): SpatialGate(
                (compress): ChannelPool()
                (spatial): BasicConv(
                  (conv): Conv2d(2, 1, kernel_size=(7, 7), stride=(1, 1), padding=(3, 3), bias=False)
                  (bn): BatchNorm2d(1, eps=1e-05, momentum=0.01, affine=True, track_running_stats=True)
                )
              )
            )
            (7): eca(
              (avg_pool): AdaptiveAvgPool2d(output_size=1)
              (conv): Conv1d(1, 1, kernel_size=(3,), stride=(1,), padding=(1,), bias=False)
              (sigmoid): Sigmoid()
            )
          )
          (attention): AttentionModule(
            (avg_pool): AdaptiveAvgPool2d(output_size=1)
            (fc): Sequential(
              (0): Linear(in_features=512, out_features=64, bias=False)
              (1): ReLU(inplace=True)
              (2): Linear(in_features=64, out_features=512, bias=False)
              (3): Sigmoid()
            )
          )
        )
        (8): MixedOp(
          (_ops): ModuleList(
            (0): SepConv(
              (op): Sequential(
                (0): ReLU()
                (1): Conv2d(64, 64, kernel_size=(3, 3), stride=(1, 1), padding=(1, 1), groups=64, bias=False)
                (2): Conv2d(64, 64, kernel_size=(1, 1), stride=(1, 1), bias=False)
                (3): BatchNorm2d(64, eps=1e-05, momentum=0.1, affine=False, track_running_stats=True)
                (4): ReLU()
                (5): Conv2d(64, 64, kernel_size=(3, 3), stride=(1, 1), padding=(1, 1), groups=64, bias=False)
                (6): Conv2d(64, 64, kernel_size=(1, 1), stride=(1, 1), bias=False)
                (7): BatchNorm2d(64, eps=1e-05, momentum=0.1, affine=False, track_running_stats=True)
              )
            )
            (1): DilConv(
              (op): Sequential(
                (0): ReLU()
                (1): Conv2d(64, 64, kernel_size=(3, 3), stride=(1, 1), padding=(2, 2), dilation=(2, 2), groups=64, bias=False)
                (2): Conv2d(64, 64, kernel_size=(1, 1), stride=(1, 1), bias=False)
                (3): BatchNorm2d(64, eps=1e-05, momentum=0.1, affine=False, track_running_stats=True)
              )
            )
            (2): Identity()
            (3): Sequential(
              (0): AvgPool2d(kernel_size=3, stride=1, padding=1)
              (1): BatchNorm2d(64, eps=1e-05, momentum=0.1, affine=False, track_running_stats=True)
            )
            (4): Sequential(
              (0): MaxPool2d(kernel_size=3, stride=1, padding=1, dilation=1, ceil_mode=False)
              (1): BatchNorm2d(64, eps=1e-05, momentum=0.1, affine=False, track_running_stats=True)
            )
            (5): Zero()
            (6): CBAM(
              (ChannelGate): ChannelGate(
                (mlp): Sequential(
                  (0): Flatten()
                  (1): Linear(in_features=64, out_features=4, bias=True)
                  (2): ReLU()
                  (3): Linear(in_features=4, out_features=64, bias=True)
                )
              )
              (SpatialGate): SpatialGate(
                (compress): ChannelPool()
                (spatial): BasicConv(
                  (conv): Conv2d(2, 1, kernel_size=(7, 7), stride=(1, 1), padding=(3, 3), bias=False)
                  (bn): BatchNorm2d(1, eps=1e-05, momentum=0.01, affine=True, track_running_stats=True)
                )
              )
            )
            (7): eca(
              (avg_pool): AdaptiveAvgPool2d(output_size=1)
              (conv): Conv1d(1, 1, kernel_size=(3,), stride=(1,), padding=(1,), bias=False)
              (sigmoid): Sigmoid()
            )
          )
          (attention): AttentionModule(
            (avg_pool): AdaptiveAvgPool2d(output_size=1)
            (fc): Sequential(
              (0): Linear(in_features=512, out_features=64, bias=False)
              (1): ReLU(inplace=True)
              (2): Linear(in_features=64, out_features=512, bias=False)
              (3): Sigmoid()
            )
          )
        )
        (9): MixedOp(
          (_ops): ModuleList(
            (0): SepConv(
              (op): Sequential(
                (0): ReLU()
                (1): Conv2d(64, 64, kernel_size=(3, 3), stride=(1, 1), padding=(1, 1), groups=64, bias=False)
                (2): Conv2d(64, 64, kernel_size=(1, 1), stride=(1, 1), bias=False)
                (3): BatchNorm2d(64, eps=1e-05, momentum=0.1, affine=False, track_running_stats=True)
                (4): ReLU()
                (5): Conv2d(64, 64, kernel_size=(3, 3), stride=(1, 1), padding=(1, 1), groups=64, bias=False)
                (6): Conv2d(64, 64, kernel_size=(1, 1), stride=(1, 1), bias=False)
                (7): BatchNorm2d(64, eps=1e-05, momentum=0.1, affine=False, track_running_stats=True)
              )
            )
            (1): DilConv(
              (op): Sequential(
                (0): ReLU()
                (1): Conv2d(64, 64, kernel_size=(3, 3), stride=(1, 1), padding=(2, 2), dilation=(2, 2), groups=64, bias=False)
                (2): Conv2d(64, 64, kernel_size=(1, 1), stride=(1, 1), bias=False)
                (3): BatchNorm2d(64, eps=1e-05, momentum=0.1, affine=False, track_running_stats=True)
              )
            )
            (2): Identity()
            (3): Sequential(
              (0): AvgPool2d(kernel_size=3, stride=1, padding=1)
              (1): BatchNorm2d(64, eps=1e-05, momentum=0.1, affine=False, track_running_stats=True)
            )
            (4): Sequential(
              (0): MaxPool2d(kernel_size=3, stride=1, padding=1, dilation=1, ceil_mode=False)
              (1): BatchNorm2d(64, eps=1e-05, momentum=0.1, affine=False, track_running_stats=True)
            )
            (5): Zero()
            (6): CBAM(
              (ChannelGate): ChannelGate(
                (mlp): Sequential(
                  (0): Flatten()
                  (1): Linear(in_features=64, out_features=4, bias=True)
                  (2): ReLU()
                  (3): Linear(in_features=4, out_features=64, bias=True)
                )
              )
              (SpatialGate): SpatialGate(
                (compress): ChannelPool()
                (spatial): BasicConv(
                  (conv): Conv2d(2, 1, kernel_size=(7, 7), stride=(1, 1), padding=(3, 3), bias=False)
                  (bn): BatchNorm2d(1, eps=1e-05, momentum=0.01, affine=True, track_running_stats=True)
                )
              )
            )
            (7): eca(
              (avg_pool): AdaptiveAvgPool2d(output_size=1)
              (conv): Conv1d(1, 1, kernel_size=(3,), stride=(1,), padding=(1,), bias=False)
              (sigmoid): Sigmoid()
            )
          )
          (attention): AttentionModule(
            (avg_pool): AdaptiveAvgPool2d(output_size=1)
            (fc): Sequential(
              (0): Linear(in_features=512, out_features=64, bias=False)
              (1): ReLU(inplace=True)
              (2): Linear(in_features=64, out_features=512, bias=False)
              (3): Sigmoid()
            )
          )
        )
        (10): MixedOp(
          (_ops): ModuleList(
            (0): SepConv(
              (op): Sequential(
                (0): ReLU()
                (1): Conv2d(64, 64, kernel_size=(3, 3), stride=(1, 1), padding=(1, 1), groups=64, bias=False)
                (2): Conv2d(64, 64, kernel_size=(1, 1), stride=(1, 1), bias=False)
                (3): BatchNorm2d(64, eps=1e-05, momentum=0.1, affine=False, track_running_stats=True)
                (4): ReLU()
                (5): Conv2d(64, 64, kernel_size=(3, 3), stride=(1, 1), padding=(1, 1), groups=64, bias=False)
                (6): Conv2d(64, 64, kernel_size=(1, 1), stride=(1, 1), bias=False)
                (7): BatchNorm2d(64, eps=1e-05, momentum=0.1, affine=False, track_running_stats=True)
              )
            )
            (1): DilConv(
              (op): Sequential(
                (0): ReLU()
                (1): Conv2d(64, 64, kernel_size=(3, 3), stride=(1, 1), padding=(2, 2), dilation=(2, 2), groups=64, bias=False)
                (2): Conv2d(64, 64, kernel_size=(1, 1), stride=(1, 1), bias=False)
                (3): BatchNorm2d(64, eps=1e-05, momentum=0.1, affine=False, track_running_stats=True)
              )
            )
            (2): Identity()
            (3): Sequential(
              (0): AvgPool2d(kernel_size=3, stride=1, padding=1)
              (1): BatchNorm2d(64, eps=1e-05, momentum=0.1, affine=False, track_running_stats=True)
            )
            (4): Sequential(
              (0): MaxPool2d(kernel_size=3, stride=1, padding=1, dilation=1, ceil_mode=False)
              (1): BatchNorm2d(64, eps=1e-05, momentum=0.1, affine=False, track_running_stats=True)
            )
            (5): Zero()
            (6): CBAM(
              (ChannelGate): ChannelGate(
                (mlp): Sequential(
                  (0): Flatten()
                  (1): Linear(in_features=64, out_features=4, bias=True)
                  (2): ReLU()
                  (3): Linear(in_features=4, out_features=64, bias=True)
                )
              )
              (SpatialGate): SpatialGate(
                (compress): ChannelPool()
                (spatial): BasicConv(
                  (conv): Conv2d(2, 1, kernel_size=(7, 7), stride=(1, 1), padding=(3, 3), bias=False)
                  (bn): BatchNorm2d(1, eps=1e-05, momentum=0.01, affine=True, track_running_stats=True)
                )
              )
            )
            (7): eca(
              (avg_pool): AdaptiveAvgPool2d(output_size=1)
              (conv): Conv1d(1, 1, kernel_size=(3,), stride=(1,), padding=(1,), bias=False)
              (sigmoid): Sigmoid()
            )
          )
          (attention): AttentionModule(
            (avg_pool): AdaptiveAvgPool2d(output_size=1)
            (fc): Sequential(
              (0): Linear(in_features=512, out_features=64, bias=False)
              (1): ReLU(inplace=True)
              (2): Linear(in_features=64, out_features=512, bias=False)
              (3): Sigmoid()
            )
          )
        )
        (11): MixedOp(
          (_ops): ModuleList(
            (0): SepConv(
              (op): Sequential(
                (0): ReLU()
                (1): Conv2d(64, 64, kernel_size=(3, 3), stride=(1, 1), padding=(1, 1), groups=64, bias=False)
                (2): Conv2d(64, 64, kernel_size=(1, 1), stride=(1, 1), bias=False)
                (3): BatchNorm2d(64, eps=1e-05, momentum=0.1, affine=False, track_running_stats=True)
                (4): ReLU()
                (5): Conv2d(64, 64, kernel_size=(3, 3), stride=(1, 1), padding=(1, 1), groups=64, bias=False)
                (6): Conv2d(64, 64, kernel_size=(1, 1), stride=(1, 1), bias=False)
                (7): BatchNorm2d(64, eps=1e-05, momentum=0.1, affine=False, track_running_stats=True)
              )
            )
            (1): DilConv(
              (op): Sequential(
                (0): ReLU()
                (1): Conv2d(64, 64, kernel_size=(3, 3), stride=(1, 1), padding=(2, 2), dilation=(2, 2), groups=64, bias=False)
                (2): Conv2d(64, 64, kernel_size=(1, 1), stride=(1, 1), bias=False)
                (3): BatchNorm2d(64, eps=1e-05, momentum=0.1, affine=False, track_running_stats=True)
              )
            )
            (2): Identity()
            (3): Sequential(
              (0): AvgPool2d(kernel_size=3, stride=1, padding=1)
              (1): BatchNorm2d(64, eps=1e-05, momentum=0.1, affine=False, track_running_stats=True)
            )
            (4): Sequential(
              (0): MaxPool2d(kernel_size=3, stride=1, padding=1, dilation=1, ceil_mode=False)
              (1): BatchNorm2d(64, eps=1e-05, momentum=0.1, affine=False, track_running_stats=True)
            )
            (5): Zero()
            (6): CBAM(
              (ChannelGate): ChannelGate(
                (mlp): Sequential(
                  (0): Flatten()
                  (1): Linear(in_features=64, out_features=4, bias=True)
                  (2): ReLU()
                  (3): Linear(in_features=4, out_features=64, bias=True)
                )
              )
              (SpatialGate): SpatialGate(
                (compress): ChannelPool()
                (spatial): BasicConv(
                  (conv): Conv2d(2, 1, kernel_size=(7, 7), stride=(1, 1), padding=(3, 3), bias=False)
                  (bn): BatchNorm2d(1, eps=1e-05, momentum=0.01, affine=True, track_running_stats=True)
                )
              )
            )
            (7): eca(
              (avg_pool): AdaptiveAvgPool2d(output_size=1)
              (conv): Conv1d(1, 1, kernel_size=(3,), stride=(1,), padding=(1,), bias=False)
              (sigmoid): Sigmoid()
            )
          )
          (attention): AttentionModule(
            (avg_pool): AdaptiveAvgPool2d(output_size=1)
            (fc): Sequential(
              (0): Linear(in_features=512, out_features=64, bias=False)
              (1): ReLU(inplace=True)
              (2): Linear(in_features=64, out_features=512, bias=False)
              (3): Sigmoid()
            )
          )
        )
        (12): MixedOp(
          (_ops): ModuleList(
            (0): SepConv(
              (op): Sequential(
                (0): ReLU()
                (1): Conv2d(64, 64, kernel_size=(3, 3), stride=(1, 1), padding=(1, 1), groups=64, bias=False)
                (2): Conv2d(64, 64, kernel_size=(1, 1), stride=(1, 1), bias=False)
                (3): BatchNorm2d(64, eps=1e-05, momentum=0.1, affine=False, track_running_stats=True)
                (4): ReLU()
                (5): Conv2d(64, 64, kernel_size=(3, 3), stride=(1, 1), padding=(1, 1), groups=64, bias=False)
                (6): Conv2d(64, 64, kernel_size=(1, 1), stride=(1, 1), bias=False)
                (7): BatchNorm2d(64, eps=1e-05, momentum=0.1, affine=False, track_running_stats=True)
              )
            )
            (1): DilConv(
              (op): Sequential(
                (0): ReLU()
                (1): Conv2d(64, 64, kernel_size=(3, 3), stride=(1, 1), padding=(2, 2), dilation=(2, 2), groups=64, bias=False)
                (2): Conv2d(64, 64, kernel_size=(1, 1), stride=(1, 1), bias=False)
                (3): BatchNorm2d(64, eps=1e-05, momentum=0.1, affine=False, track_running_stats=True)
              )
            )
            (2): Identity()
            (3): Sequential(
              (0): AvgPool2d(kernel_size=3, stride=1, padding=1)
              (1): BatchNorm2d(64, eps=1e-05, momentum=0.1, affine=False, track_running_stats=True)
            )
            (4): Sequential(
              (0): MaxPool2d(kernel_size=3, stride=1, padding=1, dilation=1, ceil_mode=False)
              (1): BatchNorm2d(64, eps=1e-05, momentum=0.1, affine=False, track_running_stats=True)
            )
            (5): Zero()
            (6): CBAM(
              (ChannelGate): ChannelGate(
                (mlp): Sequential(
                  (0): Flatten()
                  (1): Linear(in_features=64, out_features=4, bias=True)
                  (2): ReLU()
                  (3): Linear(in_features=4, out_features=64, bias=True)
                )
              )
              (SpatialGate): SpatialGate(
                (compress): ChannelPool()
                (spatial): BasicConv(
                  (conv): Conv2d(2, 1, kernel_size=(7, 7), stride=(1, 1), padding=(3, 3), bias=False)
                  (bn): BatchNorm2d(1, eps=1e-05, momentum=0.01, affine=True, track_running_stats=True)
                )
              )
            )
            (7): eca(
              (avg_pool): AdaptiveAvgPool2d(output_size=1)
              (conv): Conv1d(1, 1, kernel_size=(3,), stride=(1,), padding=(1,), bias=False)
              (sigmoid): Sigmoid()
            )
          )
          (attention): AttentionModule(
            (avg_pool): AdaptiveAvgPool2d(output_size=1)
            (fc): Sequential(
              (0): Linear(in_features=512, out_features=64, bias=False)
              (1): ReLU(inplace=True)
              (2): Linear(in_features=64, out_features=512, bias=False)
              (3): Sigmoid()
            )
          )
        )
        (13): MixedOp(
          (_ops): ModuleList(
            (0): SepConv(
              (op): Sequential(
                (0): ReLU()
                (1): Conv2d(64, 64, kernel_size=(3, 3), stride=(1, 1), padding=(1, 1), groups=64, bias=False)
                (2): Conv2d(64, 64, kernel_size=(1, 1), stride=(1, 1), bias=False)
                (3): BatchNorm2d(64, eps=1e-05, momentum=0.1, affine=False, track_running_stats=True)
                (4): ReLU()
                (5): Conv2d(64, 64, kernel_size=(3, 3), stride=(1, 1), padding=(1, 1), groups=64, bias=False)
                (6): Conv2d(64, 64, kernel_size=(1, 1), stride=(1, 1), bias=False)
                (7): BatchNorm2d(64, eps=1e-05, momentum=0.1, affine=False, track_running_stats=True)
              )
            )
            (1): DilConv(
              (op): Sequential(
                (0): ReLU()
                (1): Conv2d(64, 64, kernel_size=(3, 3), stride=(1, 1), padding=(2, 2), dilation=(2, 2), groups=64, bias=False)
                (2): Conv2d(64, 64, kernel_size=(1, 1), stride=(1, 1), bias=False)
                (3): BatchNorm2d(64, eps=1e-05, momentum=0.1, affine=False, track_running_stats=True)
              )
            )
            (2): Identity()
            (3): Sequential(
              (0): AvgPool2d(kernel_size=3, stride=1, padding=1)
              (1): BatchNorm2d(64, eps=1e-05, momentum=0.1, affine=False, track_running_stats=True)
            )
            (4): Sequential(
              (0): MaxPool2d(kernel_size=3, stride=1, padding=1, dilation=1, ceil_mode=False)
              (1): BatchNorm2d(64, eps=1e-05, momentum=0.1, affine=False, track_running_stats=True)
            )
            (5): Zero()
            (6): CBAM(
              (ChannelGate): ChannelGate(
                (mlp): Sequential(
                  (0): Flatten()
                  (1): Linear(in_features=64, out_features=4, bias=True)
                  (2): ReLU()
                  (3): Linear(in_features=4, out_features=64, bias=True)
                )
              )
              (SpatialGate): SpatialGate(
                (compress): ChannelPool()
                (spatial): BasicConv(
                  (conv): Conv2d(2, 1, kernel_size=(7, 7), stride=(1, 1), padding=(3, 3), bias=False)
                  (bn): BatchNorm2d(1, eps=1e-05, momentum=0.01, affine=True, track_running_stats=True)
                )
              )
            )
            (7): eca(
              (avg_pool): AdaptiveAvgPool2d(output_size=1)
              (conv): Conv1d(1, 1, kernel_size=(3,), stride=(1,), padding=(1,), bias=False)
              (sigmoid): Sigmoid()
            )
          )
          (attention): AttentionModule(
            (avg_pool): AdaptiveAvgPool2d(output_size=1)
            (fc): Sequential(
              (0): Linear(in_features=512, out_features=64, bias=False)
              (1): ReLU(inplace=True)
              (2): Linear(in_features=64, out_features=512, bias=False)
              (3): Sigmoid()
            )
          )
        )
      )
      (_bns): ModuleList()
    )
  )
  (global_pooling): AdaptiveAvgPool2d(output_size=1)
  (classifier): Linear(in_features=256, out_features=3, bias=True)
)
12/08 11:32:52 PM param size = 3.073155MB
/home/wz/.conda/envs/federated/lib/python3.9/site-packages/torch/optim/lr_scheduler.py:138: UserWarning: Detected call of `lr_scheduler.step()` before `optimizer.step()`. In PyTorch 1.1.0 and later, you should call them in the opposite order: `optimizer.step()` before `lr_scheduler.step()`.  Failure to do this will result in PyTorch skipping the first value of the learning rate schedule. See more details at https://pytorch.org/docs/stable/optim.html#how-to-adjust-learning-rate
…
