…
('avg_pool_3x3', 1), ('skip_connect', 4), ('sep_conv_3x3', 3)], normal_concat=range(2, 6)), Reduce_Genotype(reduce=[('skip_connect', 0), ('sep_conv_5x5', 1), ('max_pool_3x3', 0), ('sep_conv_3x3', 2), ('avg_pool_3x3', 3), ('dil_conv_3x3', 1), ('dil_conv_3x3', 3), ('sep_conv_3x3', 4)], reduce_concat=range(2, 6)), Normal_Genotype(normal=[('sep_conv_3x3', 0), ('sep_conv_3x3', 1), ('skip_connect', 0), ('dil_conv_3x3', 1), ('dil_conv_5x5', 3), ('avg_pool_3x3', 1), ('avg_pool_3x3', 4), ('sep_conv_5x5', 2)], normal_concat=range(2, 6))]
2023-11-02 00:42:33,971 NetworkCIFAR(
  (stem): Sequential(
    (0): Conv2d(3, 108, kernel_size=(3, 3), stride=(1, 1), padding=(1, 1), bias=False)
    (1): BatchNorm2d(108, eps=1e-05, momentum=0.1, affine=True, track_running_stats=True)
  )
  (cells): ModuleList(
    (0): Cell(
      (preprocess0): ReLUConvBN(
        (op): Sequential(
          (0): ReLU()
          (1): Conv2d(108, 36, kernel_size=(1, 1), stride=(1, 1), bias=False)
          (2): BatchNorm2d(36, eps=1e-05, momentum=0.1, affine=True, track_running_stats=True)
        )
      )
      (preprocess1): ReLUConvBN(
        (op): Sequential(
          (0): ReLU()
          (1): Conv2d(108, 36, kernel_size=(1, 1), stride=(1, 1), bias=False)
          (2): BatchNorm2d(36, eps=1e-05, momentum=0.1, affine=True, track_running_stats=True)
        )
      )
      (_ops): ModuleList(
        (0): Identity()
        (1): MaxPool2d(kernel_size=3, stride=1, padding=1, dilation=1, ceil_mode=False)
        (2): MaxPool2d(kernel_size=3, stride=1, padding=1, dilation=1, ceil_mode=False)
        (3): AvgPool2d(kernel_size=3, stride=1, padding=1)
        (4): AvgPool2d(kernel_size=3, stride=1, padding=1)
        (5): DilConv(
          (op): Sequential(
            (0): ReLU()
            (1): Conv2d(36, 36, kernel_size=(3, 3), stride=(1, 1), padding=(2, 2), dilation=(2, 2), groups=36, bias=False)
            (2): Conv2d(36, 36, kernel_size=(1, 1), stride=(1, 1), bias=False)
            (3): BatchNorm2d(36, eps=1e-05, momentum=0.1, affine=True, track_running_stats=True)
          )
        )
        (6): SepConv(
          (op): Sequential(
            (0): ReLU()
            (1): Conv2d(36, 36, kernel_size=(3, 3), stride=(1, 1), padding=(1, 1), groups=36, bias=False)
            (2): Conv2d(36, 36, kernel_size=(1, 1), stride=(1, 1), bias=False)
            (3): BatchNorm2d(36, eps=1e-05, momentum=0.1, affine=True, track_running_stats=True)
            (4): ReLU()
            (5): Conv2d(36, 36, kernel_size=(3, 3), stride=(1, 1), padding=(1, 1), groups=36, bias=False)
            (6): Conv2d(36, 36, kernel_size=(1, 1), stride=(1, 1), bias=False)
            (7): BatchNorm2d(36, eps=1e-05, momentum=0.1, affine=True, track_running_stats=True)
          )
        )
        (7): SepConv(
          (op): Sequential(
            (0): ReLU()
            (1): Conv2d(36, 36, kernel_size=(5, 5), stride=(1, 1), padding=(2, 2), groups=36, bias=False)
            (2): Conv2d(36, 36, kernel_size=(1, 1), stride=(1, 1), bias=False)
            (3): BatchNorm2d(36, eps=1e-05, momentum=0.1, affine=True, track_running_stats=True)
            (4): ReLU()
            (5): Conv2d(36, 36, kernel_size=(5, 5), stride=(1, 1), padding=(2, 2), groups=36, bias=False)
            (6): Conv2d(36, 36, kernel_size=(1, 1), stride=(1, 1), bias=False)
            (7): BatchNorm2d(36, eps=1e-05, momentum=0.1, affine=True, track_running_stats=True)
          )
        )
      )
    )
    (1): Cell(
      (preprocess0): ReLUConvBN(
        (op): Sequential(
          (0): ReLU()
          (1): Conv2d(108, 36, kernel_size=(1, 1), stride=(1, 1), bias=False)
          (2): BatchNorm2d(36, eps=1e-05, momentum=0.1, affine=True, track_running_stats=True)
        )
      )
      (preprocess1): ReLUConvBN(
        (op): Sequential(
          (0): ReLU()
          (1): Conv2d(144, 36, kernel_size=(1, 1), stride=(1, 1), bias=False)
          (2): BatchNorm2d(36, eps=1e-05, momentum=0.1, affine=True, track_running_stats=True)
        )
      )
      (_ops): ModuleList(
        (0): Identity()
        (1): MaxPool2d(kernel_size=3, stride=1, padding=1, dilation=1, ceil_mode=False)
        (2): MaxPool2d(kernel_size=3, stride=1, padding=1, dilation=1, ceil_mode=False)
        (3): AvgPool2d(kernel_size=3, stride=1, padding=1)
        (4): AvgPool2d(kernel_size=3, stride=1, padding=1)
        (5): DilConv(
          (op): Sequential(
            (0): ReLU()
            (1): Conv2d(36, 36, kernel_size=(3, 3), stride=(1, 1), padding=(2, 2), dilation=(2, 2), groups=36, bias=False)
            (2): Conv2d(36, 36, kernel_size=(1, 1), stride=(1, 1), bias=False)
            (3): BatchNorm2d(36, eps=1e-05, momentum=0.1, affine=True, track_running_stats=True)
          )
        )
        (6): SepConv(
          (op): Sequential(
            (0): ReLU()
            (1): Conv2d(36, 36, kernel_size=(3, 3), stride=(1, 1), padding=(1, 1), groups=36, bias=False)
            (2): Conv2d(36, 36, kernel_size=(1, 1), stride=(1, 1), bias=False)
            (3): BatchNorm2d(36, eps=1e-05, momentum=0.1, affine=True, track_running_stats=True)
            (4): ReLU()
            (5): Conv2d(36, 36, kernel_size=(3, 3), stride=(1, 1), padding=(1, 1), groups=36, bias=False)
            (6): Conv2d(36, 36, kernel_size=(1, 1), stride=(1, 1), bias=False)
            (7): BatchNorm2d(36, eps=1e-05, momentum=0.1, affine=True, track_running_stats=True)
          )
        )
        (7): SepConv(
          (op): Sequential(
            (0): ReLU()
            (1): Conv2d(36, 36, kernel_size=(5, 5), stride=(1, 1), padding=(2, 2), groups=36, bias=False)
            (2): Conv2d(36, 36, kernel_size=(1, 1), stride=(1, 1), bias=False)
            (3): BatchNorm2d(36, eps=1e-05, momentum=0.1, affine=True, track_running_stats=True)
            (4): ReLU()
            (5): Conv2d(36, 36, kernel_size=(5, 5), stride=(1, 1), padding=(2, 2), groups=36, bias=False)
            (6): Conv2d(36, 36, kernel_size=(1, 1), stride=(1, 1), bias=False)
            (7): BatchNorm2d(36, eps=1e-05, momentum=0.1, affine=True, track_running_stats=True)
          )
        )
      )
    )
    (2): Cell(
      (preprocess0): ReLUConvBN(
        (op): Sequential(
          (0): ReLU()
          (1): Conv2d(144, 72, kernel_size=(1, 1), stride=(1, 1), bias=False)
          (2): BatchNorm2d(72, eps=1e-05, momentum=0.1, affine=True, track_running_stats=True)
        )
      )
      (preprocess1): ReLUConvBN(
        (op): Sequential(
          (0): ReLU()
          (1): Conv2d(144, 72, kernel_size=(1, 1), stride=(1, 1), bias=False)
          (2): BatchNorm2d(72, eps=1e-05, momentum=0.1, affine=True, track_running_stats=True)
        )
      )
      (_ops): ModuleList(
        (0): AvgPool2d(kernel_size=3, stride=2, padding=1)
        (1): SepConv(
          (op): Sequential(
            (0): ReLU()
            (1): Conv2d(72, 72, kernel_size=(3, 3), stride=(2, 2), padding=(1, 1), groups=72, bias=False)
            (2): Conv2d(72, 72, kernel_size=(1, 1), stride=(1, 1), bias=False)
            (3): BatchNorm2d(72, eps=1e-05, momentum=0.1, affine=True, track_running_stats=True)
            (4): ReLU()
            (5): Conv2d(72, 72, kernel_size=(3, 3), stride=(1, 1), padding=(1, 1), groups=72, bias=False)
            (6): Conv2d(72, 72, kernel_size=(1, 1), stride=(1, 1), bias=False)
            (7): BatchNorm2d(72, eps=1e-05, momentum=0.1, affine=True, track_running_stats=True)
          )
        )
        (2): FactorizedReduce(
          (relu): ReLU()
          (conv_1): Conv2d(72, 36, kernel_size=(1, 1), stride=(2, 2), bias=False)
          (conv_2): Conv2d(72, 36, kernel_size=(1, 1), stride=(2, 2), bias=False)
          (bn): BatchNorm2d(72, eps=1e-05, momentum=0.1, affine=True, track_running_stats=True)
        )
        (3): AvgPool2d(kernel_size=3, stride=1, padding=1)
        (4): Identity()
        (5): SepConv(
          (op): Sequential(
            (0): ReLU()
            (1): Conv2d(72, 72, kernel_size=(3, 3), stride=(2, 2), padding=(1, 1), groups=72, bias=False)
            (2): Conv2d(72, 72, kernel_size=(1, 1), stride=(1, 1), bias=False)
            (3): BatchNorm2d(72, eps=1e-05, momentum=0.1, affine=True, track_running_stats=True)
            (4): ReLU()
            (5): Conv2d(72, 72, kernel_size=(3, 3), stride=(1, 1), padding=(1, 1), groups=72, bias=False)
            (6): Conv2d(72, 72, kernel_size=(1, 1), stride=(1, 1), bias=False)
            (7): BatchNorm2d(72, eps=1e-05, momentum=0.1, affine=True, track_running_stats=True)
          )
        )
        (6): DilConv(
          (op): Sequential(
            (0): ReLU()
            (1): Conv2d(72, 72, kernel_size=(5, 5), stride=(1, 1), padding=(4, 4), dilation=(2, 2), groups=72, bias=False)
            (2): Conv2d(72, 72, kernel_size=(1, 1), stride=(1, 1), bias=False)
            (3): BatchNorm2d(72, eps=1e-05, momentum=0.1, affine=True, track_running_stats=True)
          )
        )
        (7): MaxPool2d(kernel_size=3, stride=1, padding=1, dilation=1, ceil_mode=False)
      )
    )
    (3): Cell(
      (preprocess0): FactorizedReduce(
        (relu): ReLU()
        (conv_1): Conv2d(144, 36, kernel_size=(1, 1), stride=(2, 2), bias=False)
        (conv_2): Conv2d(144, 36, kernel_size=(1, 1), stride=(2, 2), bias=False)
        (bn): BatchNorm2d(72, eps=1e-05, momentum=0.1, affine=True, track_running_stats=True)
      )
      (preprocess1): ReLUConvBN(
        (op): Sequential(
          (0): ReLU()
          (1): Conv2d(288, 72, kernel_size=(1, 1), stride=(1, 1), bias=False)
          (2): BatchNorm2d(72, eps=1e-05, momentum=0.1, affine=True, track_running_stats=True)
        )
      )
      (_ops): ModuleList(
        (0): SepConv(
          (op): Sequential(
            (0): ReLU()
            (1): Conv2d(72, 72, kernel_size=(5, 5), stride=(1, 1), padding=(2, 2), groups=72, bias=False)
            (2): Conv2d(72, 72, kernel_size=(1, 1), stride=(1, 1), bias=False)
            (3): BatchNorm2d(72, eps=1e-05, momentum=0.1, affine=True, track_running_stats=True)
            (4): ReLU()
            (5): Conv2d(72, 72, kernel_size=(5, 5), stride=(1, 1), padding=(2, 2), groups=72, bias=False)
            (6): Conv2d(72, 72, kernel_size=(1, 1), stride=(1, 1), bias=False)
            (7): BatchNorm2d(72, eps=1e-05, momentum=0.1, affine=True, track_running_stats=True)
          )
        )
        (1): SepConv(
          (op): Sequential(
            (0): ReLU()
            (1): Conv2d(72, 72, kernel_size=(5, 5), stride=(1, 1), padding=(2, 2), groups=72, bias=False)
            (2): Conv2d(72, 72, kernel_size=(1, 1), stride=(1, 1), bias=False)
            (3): BatchNorm2d(72, eps=1e-05, momentum=0.1, affine=True, track_running_stats=True)
            (4): ReLU()
            (5): Conv2d(72, 72, kernel_size=(5, 5), stride=(1, 1), padding=(2, 2), groups=72, bias=False)
            (6): Conv2d(72, 72, kernel_size=(1, 1), stride=(1, 1), bias=False)
            (7): BatchNorm2d(72, eps=1e-05, momentum=0.1, affine=True, track_running_stats=True)
          )
        )
        (2): SepConv(
          (op): Sequential(
            (0): ReLU()
            (1): Conv2d(72, 72, kernel_size=(5, 5), stride=(1, 1), padding=(2, 2), groups=72, bias=False)
            (2): Conv2d(72, 72, kernel_size=(1, 1), stride=(1, 1), bias=False)
            (3): BatchNorm2d(72, eps=1e-05, momentum=0.1, affine=True, track_running_stats=True)
            (4): ReLU()
            (5): Conv2d(72, 72, kernel_size=(5, 5), stride=(1, 1), padding=(2, 2), groups=72, bias=False)
            (6): Conv2d(72, 72, kernel_size=(1, 1), stride=(1, 1), bias=False)
            (7): BatchNorm2d(72, eps=1e-05, momentum=0.1, affine=True, track_running_stats=True)
          )
        )
        (3): DilConv(
          (op): Sequential(
            (0): ReLU()
            (1): Conv2d(72, 72, kernel_size=(3, 3), stride=(1, 1), padding=(2, 2), dilation=(2, 2), groups=72, bias=False)
            (2): Conv2d(72, 72, kernel_size=(1, 1), stride=(1, 1), bias=False)
            (3): BatchNorm2d(72, eps=1e-05, momentum=0.1, affine=True, track_running_stats=True)
          )
        )
        (4): DilConv(
          (op): Sequential(
            (0): ReLU()
            (1): Conv2d(72, 72, kernel_size=(5, 5), stride=(1, 1), padding=(4, 4), dilation=(2, 2), groups=72, bias=False)
            (2): Conv2d(72, 72, kernel_size=(1, 1), stride=(1, 1), bias=False)
            (3): BatchNorm2d(72, eps=1e-05, momentum=0.1, affine=True, track_running_stats=True)
          )
        )
        (5): AvgPool2d(kernel_size=3, stride=1, padding=1)
        (6): Identity()
        (7): SepConv(
          (op): Sequential(
            (0): ReLU()
            (1): Conv2d(72, 72, kernel_size=(3, 3), stride=(1, 1), padding=(1, 1), groups=72, bias=False)
            (2): Conv2d(72, 72, kernel_size=(1, 1), stride=(1, 1), bias=False)
            (3): BatchNorm2d(72, eps=1e-05, momentum=0.1, affine=True, track_running_stats=True)
            (4): ReLU()
            (5): Conv2d(72, 72, kernel_size=(3, 3), stride=(1, 1), padding=(1, 1), groups=72, bias=False)
            (6): Conv2d(72, 72, kernel_size=(1, 1), stride=(1, 1), bias=False)
            (7): BatchNorm2d(72, eps=1e-05, momentum=0.1, affine=True, track_running_stats=True)
          )
        )
      )
    )
    (4): Cell(
      (preprocess0): ReLUConvBN(
        (op): Sequential(
          (0): ReLU()
          (1): Conv2d(288, 144, kernel_size=(1, 1), stride=(1, 1), bias=False)
          (2): BatchNorm2d(144, eps=1e-05, momentum=0.1, affine=True, track_running_stats=True)
        )
      )
      (preprocess1): ReLUConvBN(
        (op): Sequential(
          (0): ReLU()
          (1): Conv2d(288, 144, kernel_size=(1, 1), stride=(1, 1), bias=False)
          (2): BatchNorm2d(144, eps=1e-05, momentum=0.1, affine=True, track_running_stats=True)
        )
      )
      (_ops): ModuleList(
        (0): FactorizedReduce(
          (relu): ReLU()
          (conv_1): Conv2d(144, 72, kernel_size=(1, 1), stride=(2, 2), bias=False)
          (conv_2): Conv2d(144, 72, kernel_size=(1, 1), stride=(2, 2), bias=False)
          (bn): BatchNorm2d(144, eps=1e-05, momentum=0.1, affine=True, track_running_stats=True)
        )
        (1): SepConv(
          (op): Sequential(
            (0): ReLU()
            (1): Conv2d(144, 144, kernel_size=(5, 5), stride=(2, 2), padding=(2, 2), groups=144, bias=False)
            (2): Conv2d(144, 144, kernel_size=(1, 1), stride=(1, 1), bias=False)
            (3): BatchNorm2d(144, eps=1e-05, momentum=0.1, affine=True, track_running_stats=True)
            (4): ReLU()
            (5): Conv2d(144, 144, kernel_size=(5, 5), stride=(1, 1), padding=(2, 2), groups=144, bias=False)
            (6): Conv2d(144, 144, kernel_size=(1, 1), stride=(1, 1), bias=False)
            (7): BatchNorm2d(144, eps=1e-05, momentum=0.1, affine=True, track_running_stats=True)
          )
        )
        (2): MaxPool2d(kernel_size=3, stride=2, padding=1, dilation=1, ceil_mode=False)
        (3): SepConv(
          (op): Sequential(
            (0): ReLU()
            (1): Conv2d(144, 144, kernel_size=(3, 3), stride=(1, 1), padding=(1, 1), groups=144, bias=False)
            (2): Conv2d(144, 144, kernel_size=(1, 1), stride=(1, 1), bias=False)
            (3): BatchNorm2d(144, eps=1e-05, momentum=0.1, affine=True, track_running_stats=True)
            (4): ReLU()
            (5): Conv2d(144, 144, kernel_size=(3, 3), stride=(1, 1), padding=(1, 1), groups=144, bias=False)
            (6): Conv2d(144, 144, kernel_size=(1, 1), stride=(1, 1), bias=False)
            (7): BatchNorm2d(144, eps=1e-05, momentum=0.1, affine=True, track_running_stats=True)
          )
        )
        (4): AvgPool2d(kernel_size=3, stride=1, padding=1)
        (5): DilConv(
          (op): Sequential(
            (0): ReLU()
            (1): Conv2d(144, 144, kernel_size=(3, 3), stride=(2, 2), padding=(2, 2), dilation=(2, 2), groups=144, bias=False)
            (2): Conv2d(144, 144, kernel_size=(1, 1), stride=(1, 1), bias=False)
            (3): BatchNorm2d(144, eps=1e-05, momentum=0.1, affine=True, track_running_stats=True)
          )
        )
        (6): DilConv(
          (op): Sequential(
            (0): ReLU()
            (1): Conv2d(144, 144, kernel_size=(3, 3), stride=(1, 1), padding=(2, 2), dilation=(2, 2), groups=144, bias=False)
            (2): Conv2d(144, 144, kernel_size=(1, 1), stride=(1, 1), bias=False)
            (3): BatchNorm2d(144, eps=1e-05, momentum=0.1, affine=True, track_running_stats=True)
          )
        )
        (7): SepConv(
          (op): Sequential(
            (0): ReLU()
            (1): Conv2d(144, 144, kernel_size=(3, 3), stride=(1, 1), padding=(1, 1), groups=144, bias=False)
            (2): Conv2d(144, 144, kernel_size=(1, 1), stride=(1, 1), bias=False)
            (3): BatchNorm2d(144, eps=1e-05, momentum=0.1, affine=True, track_running_stats=True)
            (4): ReLU()
            (5): Conv2d(144, 144, kernel_size=(3, 3), stride=(1, 1), padding=(1, 1), groups=144, bias=False)
            (6): Conv2d(144, 144, kernel_size=(1, 1), stride=(1, 1), bias=False)
            (7): BatchNorm2d(144, eps=1e-05, momentum=0.1, affine=True, track_running_stats=True)
          )
        )
      )
    )
    (5): Cell(
      (preprocess0): FactorizedReduce(
        (relu): ReLU()
        (conv_1): Conv2d(288, 72, kernel_size=(1, 1), stride=(2, 2), bias=False)
        (conv_2): Conv2d(288, 72, kernel_size=(1, 1), stride=(2, 2), bias=False)
        (bn): BatchNorm2d(144, eps=1e-05, momentum=0.1, affine=True, track_running_stats=True)
      )
      (preprocess1): ReLUConvBN(
        (op): Sequential(
          (0): ReLU()
          (1): Conv2d(576, 144, kernel_size=(1, 1), stride=(1, 1), bias=False)
          (2): BatchNorm2d(144, eps=1e-05, momentum=0.1, affine=True, track_running_stats=True)
        )
      )
      (_ops): ModuleList(
        (0): SepConv(
          (op): Sequential(
            (0): ReLU()
            (1): Conv2d(144, 144, kernel_size=(3, 3), stride=(1, 1), padding=(1, 1), groups=144, bias=False)
            (2): Conv2d(144, 144, kernel_size=(1, 1), stride=(1, 1), bias=False)
            (3): BatchNorm2d(144, eps=1e-05, momentum=0.1, affine=True, track_running_stats=True)
            (4): ReLU()
            (5): Conv2d(144, 144, kernel_size=(3, 3), stride=(1, 1), padding=(1, 1), groups=144, bias=False)
            (6): Conv2d(144, 144, kernel_size=(1, 1), stride=(1, 1), bias=False)
            (7): BatchNorm2d(144, eps=1e-05, momentum=0.1, affine=True, track_running_stats=True)
          )
        )
        (1): SepConv(
          (op): Sequential(
            (0): ReLU()
            (1): Conv2d(144, 144, kernel_size=(3, 3), stride=(1, 1), padding=(1, 1), groups=144, bias=False)
            (2): Conv2d(144, 144, kernel_size=(1, 1), stride=(1, 1), bias=False)
            (3): BatchNorm2d(144, eps=1e-05, momentum=0.1, affine=True, track_running_stats=True)
            (4): ReLU()
            (5): Conv2d(144, 144, kernel_size=(3, 3), stride=(1, 1), padding=(1, 1), groups=144, bias=False)
            (6): Conv2d(144, 144, kernel_size=(1, 1), stride=(1, 1), bias=False)
            (7): BatchNorm2d(144, eps=1e-05, momentum=0.1, affine=True, track_running_stats=True)
          )
        )
        (2): Identity()
        (3): DilConv(
          (op): Sequential(
            (0): ReLU()
            (1): Conv2d(144, 144, kernel_size=(3, 3), stride=(1, 1), padding=(2, 2), dilation=(2, 2), groups=144, bias=False)
            (2): Conv2d(144, 144, kernel_size=(1, 1), stride=(1, 1), bias=False)
            (3): BatchNorm2d(144, eps=1e-05, momentum=0.1, affine=True, track_running_stats=True)
          )
        )
        (4): DilConv(
          (op): Sequential(
            (0): ReLU()
            (1): Conv2d(144, 144, kernel_size=(5, 5), stride=(1, 1), padding=(4, 4), dilation=(2, 2), groups=144, bias=False)
            (2): Conv2d(144, 144, kernel_size=(1, 1), stride=(1, 1), bias=False)
            (3): BatchNorm2d(144, eps=1e-05, momentum=0.1, affine=True, track_running_stats=True)
          )
        )
        (5): AvgPool2d(kernel_size=3, stride=1, padding=1)
        (6): AvgPool2d(kernel_size=3, stride=1, padding=1)
        (7): SepConv(
          (op): Sequential(
            (0): ReLU()
            (1): Conv2d(144, 144, kernel_size=(5, 5), stride=(1, 1), padding=(2, 2), groups=144, bias=False)
            (2): Conv2d(144, 144, kernel_size=(1, 1), stride=(1, 1), bias=False)
            (3): BatchNorm2d(144, eps=1e-05, momentum=0.1, affine=True, track_running_stats=True)
            (4): ReLU()
            (5): Conv2d(144, 144, kernel_size=(5, 5), stride=(1, 1), padding=(2, 2), groups=144, bias=False)
            (6): Conv2d(144, 144, kernel_size=(1, 1), stride=(1, 1), bias=False)
            (7): BatchNorm2d(144, eps=1e-05, momentum=0.1, affine=True, track_running_stats=True)
          )
        )
      )
    )
  )
  (global_pooling): AdaptiveAvgPool2d(output_size=1)
  (classifier): Linear(in_features=576, out_features=3, bias=True)
)
2023-11-02 00:42:33,987 param size = 0.795999MB
2023-11-02 00:42:34,004 epoch 0 lr 2.499692e-02
2023-11-02 00:42:38,121 train 000 1.085583e+00 25.000000
2023-11-02 00:43:00,573 train 050 1.083975e+00 52.450980
2023-11-02 00:43:23,215 train 100 9.999927e-01 59.900990
2023-11-02 00:43:48,317 train 150 9.501341e-01 62.582781
2023-11-02 00:44:11,023 train 200 9.325916e-01 64.054726
…
